ai-service/trained_models/attendance_lstm.pt (torch, 221903 bytes, 12 tensors)

lstm.weight_ih_l0 f4 [256, 7]
0	0xbe9c324a	-0.30507118
1	0xbe905efe	-0.28197473
2	0xbdf2d566	-0.11857109
3	0x3e791c03	0.24327092
4	0x3d34eae6	0.04416933
5	0x3ec8ced1	0.39220288
6	0x3d4f103f	0.050552603
7	0xbd4fa4fd	-0.050694454
8	0xbe07f871	-0.13278367
9	0xbc165620	-0.009175807
10	0x3d32c2fb	0.04364298
11	0x3dc53c35	0.09630624
12	0x3da0787b	0.0783548
13	0xbd87099b	-0.06593629
14	0xbd886450	-0.06659758
15	0x3d3631b8	0.04448101
16	0xbd878ee0	-0.06619048
17	0x3e1e8f14	0.15484267
18	0x3c75e035	0.015007068
19	0x3d36aa8b	0.044596236
20	0xbd178e39	-0.03700087
21	0xbd163e3e	-0.036680453
22	0x3e3715e9	0.17879452
23	0x3c3b9660	0.011449426
24	0xbe16fbcd	-0.14744492
25	0xbe8ed7cc	-0.27899015
26	0xbe80a8e8	-0.25128865
27	0x3ba9645e	0.0051694354
28	0x3cd6cc0b	0.026220342
29	0x3d773a37	0.060358252
30	0xbdc2c93a	-0.09511037
31	0xbe2de422	-0.16981557
32	0x3ebf0919	0.37311628
33	0x3cd58239	0.026063072
34	0x3d6b3a62	0.057428725
35	0x3d40858c	0.04700236
36	0xbe29cdcc	-0.16582412
37	0xbd0bc398	-0.03412208
38	0x3e3d2ecf	0.18474887
39	0x3b9b8b71	0.0047468473
40	0x3c4262a8	0.011864342
41	0x3e7db049	0.24774279
42	0x3c7ca111	0.015419261
43	0x3c931e59	0.017958807
44	0x3ce60370	0.028077811
45	0x3dc196e0	0.09452605
46	0x3d43d87b	0.047813874
47	0xbdcccda8	-0.10000163
48	0x3df1b857	0.11802738
49	0x3e14162c	0.14461583
50	0x3e213e13	0.15746336
51	0x3d3844c0	0.04498744
52	0x3e0cb08c	0.13739222
53	0xbe57107e	-0.21002385
54	0xbe4395d3	-0.19100122
55	0xbd93d639	-0.07218594
56	0xbc3fad8b	-0.011699091
57	0x3e0ae874	0.13565236
58	0x3cc4c218	0.024018332
59	0x3e24d223	0.16095786
60	0xbbdab57c	-0.0066744667
61	0xbe491c90	-0.19639802
62	0x3dc54b59	0.09633512
63	0xbdbd2abb	-0.09236666
64	0xbdb99e33	-0.09063377
65	0x3d5da110	0.05410868
66	0x3e3fcac1	0.18729688
67	0xbde7dc72	-0.113213435
68	0x3d8739af	0.06602799
69	0x3df57ca2	0.119866624
70	0x3e4650b8	0.1936673
71	0x3d00f346	0.031482004
72	0xbdf72956	-0.12068431
73	0x3dd723f5	0.10504905
74	0x3c84a7a4	0.016193219
75	0x3e5c54da	0.21516743
76	0xbdc8e7e5	-0.09809855
77	0xbd9bbee1	-0.07604767
78	0x3de409ab	0.111346565
79	0xbbbd4ba0	-0.0057768375
80	0x3e9806b7	0.29692623
81	0x3e92d309	0.28676632
82	0x3e4cd75d	0.2000403
83	0xbdcbd366	-0.099524304
84	0xbe2bd3c9	-0.16780008
85	0xbe4609a0	-0.19339609
86	0xbd8085fe	-0.06275557
87	0x3d7eec03	0.062236797
88	0x3bf20b7f	0.0073866243
89	0x3d2828ad	0.041054416
90	0x3ce30ca1	0.027715983
91	0x3e0c6a84	0.13712507
92	0xbd43400a	-0.047668494
93	0x3def9e16	0.117000744
94	0x3d945124	0.07242039
95	0x3e1bfcaf	0.1523311
96	0x3e09295f	0.13394688
97	0x3d28e6db	0.041235786
98	0xbd4f8f5b	-0.050673824
99	0x3e3665a7	0.17812215
100	0x3db3435c	0.08753082
101	0xbc46b11f	-0.01212719
102	0xbe1e3b1a	-0.15452233
103	0xbb80c402	-0.003929616
104	0xbdea961d	-0.11454413
105	0xbdd842f5	-0.10559646
106	0xbd1a2188	-0.037629634
107	0xbcbe5bd8	-0.023237154
108	0x3e46a266	0.19397888
109	0x3de7aec0	0.11312628
110	0x3d2fb270	0.04289478
111	0x3d7c1106	0.061539672
112	0xbd39ba46	-0.04534366
113	0xbd1887e4	-0.03723897
114	0x3de8e566	0.11371879
115	0xbe510a40	-0.20414066
116	0x3e14edf2	0.14543894
117	0xbe4eb5a5	-0.2018648
118	0xbdd6e2d6	-0.10492484
119	0x3ddd4084	0.10803321
120	0x3e06c74a	0.1316196
121	0xbd5160b4	-0.051117614
122	0x3d83ef92	0.06442179
123	0xbec5958c	-0.38590658
124	0xbed10c3e	-0.40829653
125	0xbca41afb	-0.020032397
126	0x3dae8446	0.08521323
127	0x3e35a4af	0.17738603
128	0xbba00900	-0.0048838854
129	0x3e1e4c39	0.15458764
130	0x3e427a42	0.1899195
131	0xbca3ef70	-0.020011634
132	0x3e0a236d	0.13490076
133	0xbde1c2c6	-0.11023478
134	0xbcaa6384	-0.020799406
135	0xbdd69cfa	-0.1047916
136	0x3e2a4fd4	0.16632015
137	0x3d64128d	0.055681754
138	0xbd7ca3e3	-0.061679732
139	0x3d3388a5	0.043831486
140	0xbe864fdd	-0.26232806
141	0xbe6712fa	-0.22565833
142	0x3b141bc0	0.0022599548
143	0x3dc951f1	0.09830082
144	0x3d2ca3c2	0.04214836
145	0x3dbe7980	0.09300518
146	0x3e17e9a6	0.14835224
147	0x3cc579a3	0.024105852
148	0xbdb237ef	-0.08702075
149	0x3d8f2efc	0.069913834
150	0x3e0addff	0.13561247
151	0xbdcc0a4b	-0.09962901
152	0x3ca6f4ff	0.020380495
153	0xbd64d703	-0.055869114
154	0xbd562090	-0.052277148
155	0x3d093bd9	0.03350434
156	0x3cce5758	0.025188133
157	0xbe398dda	-0.18120518
158	0x3e4d0036	0.20019612
159	0x3e01ec54	0.12687808
160	0x3e84355f	0.2582197
161	0x3dd6032c	0.10449824
162	0x3d98f025	0.07467679
163	0xbd8ebf30	-0.0697006
164	0x3d19963c	0.03749679
165	0xbf286e7a	-0.65793574
166	0xbddcb706	-0.107770965
167	0x3c9b48f3	0.018955683
168	0xbe9afaed	-0.30269566
169	0xbe817692	-0.25285774
170	0x3d059428	0.032611996
171	0x3e980dcb	0.29698023
172	0x3e97ffd8	0.2968738
173	0x3e2b2b4a	0.16715732
174	0x3e2345aa	0.15944543
175	0xbe05c5d3	-0.13063745
176	0xbe32072e	-0.17385551
177	0x3d4d875c	0.050177917
178	0x3cff7541	0.03118384
179	0x3e003b66	0.12522659
180	0xbd8c07cc	-0.06837425
181	0xbe228319	-0.15870322
182	0x3e47e8d9	0.19522418
183	0x3e9ca6e9	0.30596092
184	0x3d7448a8	0.059639603
185	0x3de7c82a	0.11317475
186	0xbe4da0ce	-0.20080873
187	0xbe39206c	-0.18078774
188	0xbd95f951	-0.07322944
189	0x3a97f206	0.0011592514
190	0xbd74f0d7	-0.059799995
191	0x3d432be8	0.047649294
192	0x3cd682ee	0.026185479
193	0xbec06bf9	-0.37582377
194	0xbd98e129	-0.07464821
195	0x3d89b5c8	0.06724125
196	0x3b8fbc63	0.004386471
197	0x3d615cb4	0.05502005
198	0x3dfa5994	0.12224117
199	0x3d8c8cb8	0.068627775
200	0x3e6b05b4	0.22951394
201	0x3e1da2ef	0.15394185
202	0xbdfabc7d	-0.122429825
203	0xbdc7f2af	-0.09763085
204	0xbdaa2244	-0.08307317
205	0x3dbc51c2	0.091952816
206	0x3deaf09e	0.11471675
207	0xbd864fe7	-0.06558209
208	0x3da07337	0.078344755
209	0x3e1ceb7a	0.15324202
210	0x3e2f4ef8	0.17119968
211	0x3e4d6dd6	0.2006143
212	0xbdaf5f2c	-0.085630745
213	0xbdf9d54b	-0.121988855
214	0xbe5db1c1	-0.21649839
215	0x3e00e2d5	0.1258653
216	0x3cb46c19	0.022024201
217	0xbe2cf013	-0.16888456
218	0xbe0cc343	-0.13746361
219	0xbde9df54	-0.114195496
220	0x3e6b088b	0.22952478
221	0xbdfc0af0	-0.12306774
222	0x3c9c74b8	0.019098625
223	0xbdc58392	-0.09644236
224	0x3cbe36e0	0.023219526
225	0x3d793027	0.060836937
226	0xbdf607be	-0.120131955
227	0xbd13eec8	-0.03611639
228	0xbdb40bb7	-0.08791297
229	0x3e116d86	0.14201936
230	0x3e09e2a8	0.13465369
231	0xbe3d21b9	-0.18469895
232	0xbe605c90	-0.2191031
233	0xbd896d68	-0.06710321
234	0x3ea24736	0.31694955
235	0x3f490398	0.7852111
236	0x3f17cf0f	0.5930032
237	0x3daca037	0.08428996
238	0x3d90a437	0.070625715
239	0x3e798274	0.2436617
240	0x3dcb6992	0.09932245
241	0x3c135be2	0.008994075
242	0x3e8216c1	0.25407985
243	0x3e4b93fd	0.19880672
244	0x3c16c043	0.009201112
245	0xbdf79e10	-0.12090695
246	0x3d06ffff	0.03295898
247	0x3d8d9ffe	0.06915282
248	0x3c9db132	0.019249532
249	0xbe402201	-0.18762971
250	0xbcfd96f6	-0.030955773
251	0xbd026b5b	-0.031840663
252	0xbe4e45a5	-0.20143755
253	0xbe78a65a	-0.24282208
254	0x3dc7d0d8	0.09756631
255	0x3e390079	0.18066587

lstm.weight_hh_l0 f4 [256, 64]
0	0xbe64235d	-0.22279115
1	0x3e165ed3	0.1468461
2	0xbd5e63d9	-0.05429444
3	0xbe137bae	-0.14402649
4	0x3d8bdf24	0.0682967
5	0xbd81aeac	-0.06332144
6	0xbc8d1f9a	-0.017226983
7	0xbdd04952	-0.10170235
8	0xbd32d8fa	-0.043663956
9	0xbb67ec7a	-0.0035388754
10	0x3e2988a4	0.1655603
11	0x3e0e2a5f	0.13883351
12	0x3d82fc29	0.06395752
13	0xbd926a4f	-0.07149183
14	0x3cdd8243	0.027039653
15	0x3d40d37a	0.04707668
16	0x3e0721b5	0.13196452
17	0x3dfd6f46	0.12374739
18	0x3e288f99	0.16461028
19	0x3d8a64dc	0.06757519
20	0x3da31ae5	0.07964114
21	0x3da32048	0.079651415
22	0xbd276621	-0.040868882
23	0xbb3213bf	-0.0027172414
24	0x3e7f3a80	0.2492466
25	0x3a62c2f8	0.00086502684
26	0x3b05b30c	0.002040091
27	0x3dff65eb	0.12470611
28	0xbda6c7af	-0.081435554
29	0xbaf32d66	-0.0018552958
30	0xbd94d029	-0.07266266
31	0x3d9c071a	0.07618542
32	0xbc98e6df	-0.018664775
33	0x3d695c52	0.05697281
34	0xbe05c8f5	-0.1306494
35	0x3dee0fcc	0.11624107
36	0x3e8e489f	0.2778978
37	0xbd8fd0ed	-0.07022271
38	0x3e8efb3b	0.2792605
39	0xbe72d9c0	-0.23715878
40	0xbd958a11	-0.07301725
41	0xbd481681	-0.048849586
42	0xbd998b53	-0.07497277
43	0x3dd82d65	0.10555533
44	0xbda4fed8	-0.0805642
45	0x3e50b5ed	0.20381899
46	0x3e4f143e	0.20222566
47	0x3d6ca80e	0.057777457
48	0xbdd3032c	-0.10303339
49	0xbd293617	-0.04131135
50	0x3e42c7f0	0.19021583
51	0x3e3e7cd2	0.18602303
52	0xbdac1fb6	-0.08404486
53	0x3dbd3eda	0.092405036
54	0x3e16c245	0.14722545
55	0x3dd2831f	0.102789156
56	0x3e865219	0.2623451
57	0x3d9420f0	0.07232845
58	0xbca5f987	-0.020260585
59	0xbe0df747	-0.1386386
60	0xbe2d9c05	-0.16954048
61	0xbdf7960c	-0.12089166
62	0x3da5a4de	0.080880865
63	0x3ef209b0	0.47273016
64	0xbd516e33	-0.051130485
65	0x3d22ae30	0.0397169
66	0xbb8aad58	-0.00423209
67	0x3d4ee976	0.050515614
68	0x3d1af8a3	0.037834775
69	0x3d95d9b5	0.07316915
70	0xbdac0181	-0.08398724
71	0x3d4f73c2	0.050647505
72	0x3ccb5a90	0.024823457
73	0x3d82d964	0.0638912
74	0x3ceb4acb	0.028722188
75	0xbb726a2c	-0.0036989553
76	0x3d071587	0.032979514
77	0x3e0b423a	0.13599482
78	0x3db4d7c0	0.088302135
79	0x3d4e515d	0.050370563
80	0x3cfa8895	0.030582706
81	0x3e255e74	0.16149312
82	0xbcdc7f8a	-0.026916284
83	0xbd00fc58	-0.031490654
84	0xbcebc109	-0.02877857
85	0xbd30779a	-0.04308281
86	0x3d9f8291	0.077885754
87	0xbd163538	-0.036671847
88	0x3ac3fe09	0.0014953028
89	0x3d1b0a12	0.0378514
90	0x3db4f007	0.08834844
91	0x3d07e013	0.03317268
92	0xbb348056	-0.0027542314
93	0x3de1db5f	0.1102817
94	0xbd2b8e59	-0.0418838
95	0x3d164e47	0.036695745
96	0x3d8d9103	0.069124244
97	0x3e0fad6c	0.14030999
98	0xbd98b8a6	-0.07457094
99	0x3dfc3e0b	0.12316521
100	0x3e5f348e	0.21797392
101	0xbcd535eb	-0.026026687
102	0xbd9e98fc	-0.07744023
103	0x3c908f69	0.017646508
104	0xbe13bb94	-0.14427024
105	0x3d51eb10	0.051249564
106	0xbd56d3cb	-0.052448075
107	0x3d814890	0.06312668
108	0x3dc8bf37	0.09802096
109	0x3d8c0c22	0.06838252
110	0x3e2ab44b	0.16670339
111	0x3c20977b	0.009801741
112	0xbcfb2695	-0.030658046
113	0xbd5bcfce	-0.053664975
114	0x3e25deb4	0.16198236
115	0x3e5cc65f	0.21560048
116	0x3ddccde1	0.10781456
117	0xbd938ab2	-0.072041884
118	0x3da01734	0.07816926
119	0xbe03ae5e	-0.12859485
120	0xbdbb8066	-0.091553494
121	0x3d7acca1	0.061230306
122	0x3d973912	0.07383932
123	0xbd973afb	-0.073842965
124	0xbe3a643a	-0.18202296
125	0xbdad2527	-0.08454352
126	0x3ca5b9a8	0.02023013
127	0x3d55ff83	0.052245628
128	0x3e75fb47	0.24021636
129	0xbd9e4512	-0.07728018
130	0x3cdbeb90	0.026845723
131	0x3d283758	0.041068405
132	0xbdca2e34	-0.09872094
133	0xbd9495d7	-0.07255142
134	0x3e3ef1f6	0.18646988
135	0x3c76ebdc	0.015070882
136	0xbe097a4a	-0.13425556
137	0x3df5f809	0.120101996
138	0xbe4c0208	-0.1992265
139	0xbc4e821a	-0.012604261
140	0xbdc00f0e	-0.093778715
141	0x3d4ea769	0.050452624
142	0x3db1976a	0.08671458
143	0x3d96faf3	0.073720835
144	0xbe12d427	-0.14338742
145	0x3d38354d	0.044972707
146	0xbddd21e7	-0.10797482
147	0x3d7b9d03	0.061429035
148	0xbb4aad62	-0.0030926098
149	0xbd5dc9c4	-0.054147497
150	0x3e2f1b48	0.1710025
151	0x3e37f00d	0.17962666
152	0xbdba1f89	-0.09088046
153	0x3cbab745	0.022792468
154	0xbd2af0f7	-0.04173371
155	0xbcedf93b	-0.029049506
156	0xbc9f52c6	-0.01944865
157	0x3dfbdc14	0.12297836
158	0x3db9ade1	0.09066368
159	0xbc0f2972	-0.008737909
160	0x3c404ba9	0.011736789
161	0x3d98d2c1	0.07462073
162	0xbc905256	-0.017617386
163	0x3dfe8109	0.12426955
164	0xbcfa3cb5	-0.030546525
165	0x3d7039be	0.058648817
166	0x3c724bb8	0.014788561
167	0x3d1d627b	0.038423996
168	0xbd0b3bac	-0.033992454
169	0xbe676882	-0.2259846
170	0x3dc53fd3	0.09631314
171	0xbe39204b	-0.18078725
172	0x3e31d709	0.17367186
173	0xbda950ec	-0.08267388
174	0x3dba4451	0.090950616
175	0xbe0510df	-0.12994717
176	0x3ddefe21	0.10888315
177	0x3dfbc1be	0.12292813
178	0x3de48bc4	0.11159471
179	0x3cf0ddb7	0.029402597
180	0xbc4c7f21	-0.012481482
181	0x3d9f7d77	0.077876024
182	0xbe1d74dc	-0.1537661
183	0x3d3b8f96	0.04579123
184	0x3e03d9e6	0.1287609
185	0x3db977cd	0.09056053
186	0x3e08300e	0.13299581
187	0xbe17740e	-0.14790365
188	0xbda280eb	-0.079347454
189	0x3da446e6	0.08021335
190	0x3e273ead	0.16332503
191	0xbdc62724	-0.09675434
192	0x3dcbd493	0.09952655
193	0xbdd7d9fc	-0.10539624
194	0x3d6cbb23	0.057795655
195	0x3dc77c71	0.09740532
196	0xbdce6298	-0.10077399
197	0xbd1f66e9	-0.038916502
198	0xbdda1b1c	-0.10649702
199	0xbd915c6a	-0.07097705
200	0x3c6ff2db	0.014645304
201	0xbc757a52	-0.014982777
202	0xbd73adb0	-0.059491813
203	0x3ca8855b	0.020571401
204	0xbdbd5a86	-0.092457816
205	0x3dbcba5c	0.09215233
206	0xbd2dd887	-0.042442825
207	0x3cb350b1	0.021889063
208	0xbe2727eb	-0.16323821
209	0xbdcf956a	-0.1013592
210	0xbc74865b	-0.014924611
211	0x3ddc217f	0.107485764
212	0xbd9555d1	-0.07291759
213	0x3d3ab19c	0.045579538
214	0x3d5c42a8	0.053774506
215	0x3d07a085	0.033112068
216	0x3dd91a34	0.10600701
217	0xbdbeba74	-0.09312907
218	0xbd4ad2ce	-0.049517445
219	0x3d4cdf84	0.05001785
220	0xbda2757a	-0.07932563
221	0xbd2c804f	-0.042114552
222	0x3d9f1418	0.077675045
223	0x3e0a6c50	0.1351788
224	0xbd732188	-0.05935815
225	0xbe4d431b	-0.2004513
226	0x3e3d99e4	0.18515736
227	0x3db575fe	0.08860396
228	0x3dd44349	0.10364396
229	0x3ddfa480	0.10920048
230	0xbe07c9ea	-0.13260618
231	0x3e87b757	0.26507065
232	0xbc52bd80	-0.012862563
233	0x3e000199	0.1250061
234	0x3c9a2db7	0.018820627
235	0x3dec4137	0.11535876
236	0xbd922cb7	-0.07137435
237	0xbccdd964	-0.025128074
238	0xbe11881c	-0.14212078
239	0x3ca1c3ca	0.01974668
240	0x3dd89f8a	0.10577305
241	0x3d068a31	0.032846633
242	0x3ca867b6	0.020557266
243	0x3cca1417	0.024667783
244	0x3d0ca19d	0.034333814
245	0xbe2166cd	-0.15761872
246	0xbdd6924d	-0.104771234
247	0x3c3d07ab	0.011537473
248	0x3c84e347	0.016221656
249	0xbc6ae50a	-0.014336834
250	0xbc7a48f9	-0.015276187
251	0x3d379250	0.04481727
252	0xbe289917	-0.16464649
253	0xbc37df07	-0.011222607
254	0x3cd2148f	0.025644569
255	0x3d00e096	0.03146418

lstm.bias_ih_l0 f4 [256]
0	0x3dce7f1a	0.100828364
1	0x3c81995c	0.015820198
2	0x3d7396fe	0.05947017
3	0x3d2fa01a	0.042877294
4	0x3d9b8cc4	0.07595208
5	0x3e164fb8	0.14678848
6	0x3db961dc	0.09051868
7	0xbd64873d	-0.055793036
8	0x3d20b357	0.03923353
9	0x3dc1c56c	0.09461483
10	0xbd6d6c7e	-0.057964794
11	0x3d95e175	0.07318393
12	0x3d2a3f11	0.04156405
13	0xbd1c7b92	-0.038203783
14	0x3d064700	0.032782555
15	0x3e1bff85	0.15234192
16	0xbdf7f761	-0.12107731
17	0x3da23fda	0.07922335
18	0x3d4ba3ab	0.049716633
19	0xbd2007ed	-0.03907006
20	0xbd9a1b47	-0.07524734
21	0x3d747807	0.05968478
22	0x3d86e2d1	0.065862305
23	0x3dafc41d	0.085823275
24	0xbc0417b6	-0.008062294
25	0x3dc39fec	0.09551987
26	0x3d397f64	0.045287505
27	0xbde9f9c3	-0.114245914
28	0xbd763fbd	-0.06011938
29	0x3dfab654	0.122418076
30	0xbda73da6	-0.081660554
31	0x3d3146df	0.04328048
32	0xbdc2222c	-0.09479174
33	0x3d18e008	0.037323028
34	0xbd310d72	-0.043225713
35	0xbda3ddc3	-0.08001282
36	0x3dab135d	0.08353303
37	0xbd86cb1a	-0.06581707
38	0x3d931419	0.07181568
39	0x3e09f586	0.13472566
40	0x3bd30e9e	0.0064409515
41	0x3e422433	0.18959121
42	0xbdc9a948	-0.09846741
43	0xbdad1651	-0.08451522
44	0x3d2aa8ea	0.041664995
45	0xbd842dac	-0.06454024
46	0xbb0076d9	-0.0019602089
47	0x3d9107de	0.07081579
48	0x3d1e9814	0.03871925
49	0xbd92b70b	-0.07163819
50	0xbcc82905	-0.024433622
51	0xbda665f3	-0.08124914
52	0xbcf070bb	-0.02935063
53	0xbd834430	-0.0640949
54	0x3ceb652a	0.028734762
55	0x3da2dec2	0.07952644
56	0xbcd54415	-0.02603344
57	0x3d723eb1	0.05914182
58	0xbde76c4b	-0.11299952
59	0x3da4b8d4	0.08043066
60	0x3d2fd0ee	0.04292386
61	0x3cf4d282	0.029885534
62	0xbbbf4b81	-0.005837858
63	0x3ca61b21	0.020276608
64	0x3e1d3a5f	0.15354298
65	0x3d7a5823	0.06111921
66	0x3d8c200d	0.06842051
67	0x3dda6b69	0.10665018
68	0x3c822107	0.01588489
69	0x3e24a917	0.16080128
70	0xbcc9d405	-0.024637232
71	0x3dd1c856	0.10243289
72	0x3c3f513e	0.0116770845
73	0x3c8dbfc2	0.017303351
74	0x3d49bf22	0.049254544
75	0x3de8496d	0.1134213
76	0xbd43a51e	-0.04776489
77	0xbe0548bd	-0.13016029
78	0x3bfb76f0	0.0076740906
79	0x3c7266ff	0.014795064
80	0x3c03f0cf	0.008053019
81	0xbcdc2bb7	-0.026876314
82	0xbd70d882	-0.058800228
83	0x3df8f2e5	0.121557035
84	0xbd82211b	-0.063539706
85	0xbccf61f1	-0.025315257
86	0xbd843102	-0.0645466
87	0x3dca09f2	0.09865178
88	0x3e16cba6	0.14726123
89	0x3dc3ab5b	0.09554168
90	0x3e05b30c	0.13056582
91	0x3c55120e	0.013004793
92	0xbdfee91a	-0.12446804
93	0x3de3f8e7	0.11131459
94	0xbdb0996e	-0.086230144
95	0xbd805b76	-0.06267445
96	0xbe2d19b9	-0.16904344
97	0x3e89cdfd	0.2691497
98	0xbd951fab	-0.07281431
99	0x3dfe7a46	0.124256656
100	0x3984f464	0.00025359087
101	0xbacb76eb	-0.0015523111
102	0xbd3cc6d6	-0.046088062
103	0x3d1137bd	0.035453547
104	0x3da05373	0.07828417
105	0x3e59de51	0.21276213
106	0xbd7411ef	-0.059587415
107	0x3ce33cde	0.027738985
108	0x3ccd4626	0.025057863
109	0xbd2ec399	-0.042667005
110	0xbcaff23a	-0.021477807
111	0x3dc71d46	0.0972238
112	0xbd291c6e	-0.04128688
113	0xbd6fac32	-0.058513828
114	0x3bd2e69f	0.0064361836
115	0xbc5f20d0	-0.013618663
116	0x3da1bd50	0.078974366
117	0xbd6c907e	-0.057754986
118	0x3e1b4062	0.15161279
119	0x3dce9a1a	0.10087986
120	0xbd192cdb	-0.037396293
121	0x3c7dfbc1	0.015501917
122	0xbcacb054	-0.021080174
123	0x3d854f27	0.06509238
124	0x3d14dd46	0.036343835
125	0xbc84bfa0	-0.016204655
126	0x3cc66fb2	0.024223182
127	0x3d3cc3d1	0.046085183
128	0xbd8ab74f	-0.067732446
129	0xbde0a3be	-0.10968731
130	0x3dce76db	0.10081264
131	0xbe1c340a	-0.15254226
132	0x3d00866c	0.031378195
133	0x3d547227	0.051866677
134	0x3c7421b8	0.014900617
135	0xbd8f9126	-0.07010107
136	0xbd2cfd41	-0.04223371
137	0xbe0d4eb4	-0.13799554
138	0x3dd4fa7d	0.10399339
139	0xbd613887	-0.05498555
140	0xbe060643	-0.13088326
141	0x3d4d2f4a	0.050093926
142	0x3c695e4c	0.0142436735
143	0xbd3772b0	-0.04478711
144	0x3d6fdcb0	0.058560073
145	0x3cc482d7	0.02398817
146	0xbda41a11	-0.08012784
147	0xbe3b7e97	-0.18310009
148	0x3dccffba	0.100097135
149	0x3dbeb0af	0.093110435
150	0xbc2f2899	-0.010690832
151	0xbe10defc	-0.14147562
152	0xbd520fde	-0.051284663
153	0xbcbcb909	-0.02303745
154	0xbde903e6	-0.11377697
155	0xbd273390	-0.04082066
156	0x3a77135f	0.0009425189
157	0x3c80fa93	0.015744483
158	0x3d8c0077	0.06836026
159	0x3d42dbc2	0.04757286
160	0xbda24dd3	-0.07925
161	0xbc0c0203	-0.0085454015
162	0xbd3f441c	-0.046695814
163	0x3d6f1811	0.05837256
164	0x3cc682a0	0.024232209
165	0xbc9236fb	-0.017848482
166	0x3d0f1b52	0.034938164
167	0xbb55aedc	-0.0032605445
168	0xbdbd0baa	-0.0923074
169	0xbdde9eac	-0.10870108
170	0x3d2b690b	0.041848224
171	0xbd866711	-0.06562627
172	0xbd4fb9f4	-0.050714448
173	0x3d3dcb33	0.046336364
174	0xbd77196f	-0.06032699
175	0xbde182c4	-0.1101127
176	0x3dae0e52	0.08498825
177	0x3db4be49	0.088253565
178	0xbda1ae1e	-0.07894538
179	0x3d73244e	0.059360795
180	0xbc3f687f	-0.011682629
181	0x3d944cb5	0.07241193
182	0xbe211ec7	-0.15734397
183	0xbe0ddbc2	-0.13853362
184	0xbcf86b48	-0.030324593
185	0xbc6da0a2	-0.01450363
186	0x3c7a0367	0.0152596
187	0x3e20bc75	0.1569689
188	0x3d9b6190	0.07586968
189	0xbcec3eb7	-0.028838499
190	0x3da951a9	0.082675286
191	0xbc0f10ce	-0.008732034
192	0xbd863c3d	-0.06554458
193	0xbce6a913	-0.028156793
194	0xbd75e2d0	-0.06003076
195	0xbd40d712	-0.047080107
196	0xbdd4eedf	-0.103971235
197	0x3d0bdaa8	0.034144074
198	0x3b98466e	0.0046470677
199	0x3db01dc3	0.085994266
200	0x3d83d4ad	0.06437049
201	0xbd0e1496	-0.0346876
202	0x3c73beae	0.014877005
203	0x3e0d11ac	0.13776273
204	0xbd6f19dc	-0.05837427
205	0x3cbe8d6d	0.023260796
206	0x3d7c5a85	0.061609764
207	0x3d5da876	0.054115735
208	0xbd1f1748	-0.038840562
209	0x3dccf17f	0.10006999
210	0x3db0c176	0.0863065
211	0x3e0f025f	0.13965748
212	0x3db14698	0.08656043
213	0xbda390db	-0.07986613
214	0xbe044145	-0.12915523
215	0xbc98170c	-0.018565677
216	0x3da63e60	0.08117366
217	0x3cba00eb	0.022705516
218	0x3d99247c	0.07477662
219	0xbd8d6606	-0.06904225
220	0x3d736c4e	0.05942946
221	0x3e4b50bb	0.19855015
222	0xbcc61b9f	-0.024183093
223	0x3d8cc297	0.068730526
224	0xbd797075	-0.060898263
225	0x3e81043b	0.2519854
226	0x3ddb839e	0.10718463
227	0x3d3156e5	0.04329576
228	0x3cba046e	0.02270719
229	0x3c81b442	0.015833024
230	0xbdc466ae	-0.09589897
231	0x3c1f3651	0.00971754
232	0xbab78407	-0.0014001139
233	0x3e285c8b	0.16441552
234	0x3de60433	0.1123127
235	0xbe14fe44	-0.1455012
236	0xbcef91f4	-0.0292444
237	0xbe22487c	-0.15847963
238	0xbdfb9158	-0.122835815
239	0x3d77998f	0.06044918
240	0x3d521654	0.051290825
241	0xbdeb7d78	-0.11498541
242	0x3e1587fd	0.14602657
243	0xbcbbd18e	-0.022927072
244	0xbc321674	-0.010869611
245	0xbe1ea505	-0.15492637
246	0xbdcda14d	-0.10040531
247	0xbdb46a5c	-0.08809349
248	0x3ca49e43	0.020094996
249	0xbd45afe7	-0.048263457
250	0xbda26fe9	-0.079315014
251	0xba83dc0d	-0.0010060087
252	0xbd93def3	-0.072202586
253	0xbdf3fc67	-0.11913376
254	0xbe2a69d7	-0.16641937
255	0xbd1d9663	-0.038473498

lstm.bias_hh_l0 f4 [256]
0	0x3dc75e30	0.09734762
1	0x3dd0d3f6	0.10196678
2	0xbd6f5dcf	-0.058439072
3	0x3ba8a44d	0.0051465393
4	0xbd3bfb48	-0.045893937
5	0xbceacc65	-0.028661916
6	0xbd15c5e4	-0.036565676
7	0xbd9d00ff	-0.076662056
8	0x3d89a1fa	0.06720348
9	0x3d59ef68	0.05320683
10	0xbcfe8e08	-0.031073585
11	0x3b0f0ab4	0.0021826448
12	0xbc9cea3a	-0.019154657
13	0xbd976a83	-0.073933624
14	0x3d51df36	0.05123826
15	0xbd1a1dbf	-0.037626024
16	0x3cadbe23	0.021208828
17	0x3d946f6b	0.07247814
18	0xbaac4734	-0.0013143779
19	0x3e02637d	0.12733264
20	0x3db1557d	0.08658884
21	0xba946fbe	-0.0011324806
22	0x3d82f0a1	0.063935526
23	0x3d965c16	0.07341783
24	0xbc8adbf9	-0.016950594
25	0xb9ae54e7	-0.00033251123
26	0x3d9bb4a1	0.076028116
27	0xbe0cee38	-0.13762748
28	0x3d0a5e43	0.0337813
29	0x3e2be750	0.16787457
30	0xbe0298b2	-0.12753561
31	0xbcd7e650	-0.026354939
32	0xbd2266c3	-0.039648782
33	0xbd8e673c	-0.06953284
34	0x3b96d01c	0.0046024453
35	0xbd82ce67	-0.063870244
36	0x3b555aa2	0.0032555242
37	0x3d85dcbd	0.06536243
38	0xbde0a68f	-0.109692685
39	0x3e006366	0.12537917
40	0xbd4ae141	-0.049531225
41	0x3d5a0185	0.053224105
42	0xbdcc9736	-0.09989779
43	0xbd2a7cbf	-0.041622873
44	0x3cbf1086	0.023323309
45	0xbe0195e5	-0.12654836
46	0xbe47e869	-0.19522251
47	0xbdae26d4	-0.085034996
48	0xbe1c1452	-0.15242127
49	0xbe34e6f1	-0.17666222
50	0x3ddd4a37	0.10805171
51	0xbd438972	-0.0477385
52	0x3b9f8562	0.0048681954
53	0xbd74b6b2	-0.059744544
54	0x3e048a99	0.12943496
55	0x3d4f4f11	0.050612513
56	0xbd8a9c0e	-0.06768046
57	0xbd4c0461	-0.049808864
58	0xbe51dfb7	-0.20495497
59	0xbdeecfd2	-0.11660732
60	0x3d1b5fe9	0.037933264
61	0xbb0cc191	-0.002147768
62	0xbdad86d8	-0.08472985
63	0xbdbabd56	-0.09118144
64	0x3e034442	0.12819007
65	0xbc5cfed8	-0.013488494
66	0x3d99ad1f	0.07503723
67	0xbd018e83	-0.03163005
68	0xbcfe7a2e	-0.03106412
69	0x3e148d97	0.14507137
70	0x3cae3efd	0.02127027
71	0x3e0a3a18	0.13498724
72	0xbcd74c60	-0.026281536
73	0x3dfdacf8	0.12386507
74	0xbd322704	-0.04349424
75	0xbb84602b	-0.0040397844
76	0x3db5001d	0.08837912
77	0x3d4757ef	0.048667844
78	0x3db679de	0.08909963
79	0x3e23b1c7	0.15985785
80	0x3dac174e	0.084028825
81	0x3dde8289	0.10864741
82	0x3dcb6c1e	0.09932731
83	0x3d8696bd	0.0657172
84	0x3ddc575b	0.10758849
85	0xbded0142	-0.115725055
86	0xbcdd6a68	-0.027028278
87	0x3d857f44	0.065184146
88	0x3d266712	0.04062564
89	0x3d8615d9	0.06547136
90	0x3c28a7c1	0.010293902
91	0x3e17c240	0.14820194
92	0xbc347443	-0.011014047
93	0x3db1e0f7	0.08685487
94	0x3c426667	0.011865235
95	0x3db6372a	0.088972405
96	0xbe037b10	-0.12839913
97	0x3e7ed51c	0.24885982
98	0x3d5e4ee2	0.054274447
99	0xbc98a8ae	-0.01863512
100	0x3daa5f9d	0.08319018
101	0x3baeb56a	0.005331685
102	0xbdaed95a	-0.0853755
103	0x3db4284a	0.08796747
104	0x3e240b56	0.1601995
105	0x3ea71d12	0.32639366
106	0x3da93a59	0.08263082
107	0x3dc07a0c	0.093982786
108	0xbe2406c0	-0.160182
109	0xbcc54f64	-0.024085708
110	0xbe540dac	-0.2070834
111	0xbd76de1e	-0.06027042
112	0x3da0e4ca	0.07856138
113	0x3c8ef3da	0.017450262
114	0xbdd85cc0	-0.10564566
115	0xbd808060	-0.062744856
116	0xbd538f6b	-0.051650446
117	0x3c3a9498	0.011387967
118	0x3e67c096	0.2263206
119	0x3e5f1f36	0.2178925
120	0x3d95e093	0.07318225
121	0xbde3ed04	-0.111291915
122	0xbd46fd62	-0.04858149
123	0x3d5e9e0b	0.05434994
124	0xbd8514fd	-0.06498144
125	0xbd260c1d	-0.040538896
126	0xbe04bbc4	-0.12962252
127	0xbd887552	-0.06663002
128	0xbd189fe0	-0.037261844
129	0x3dcd7d7c	0.100337
130	0x3d2a8482	0.041630276
131	0x3ce71962	0.028210346
132	0x3c9c9884	0.019115694
133	0xbdb1369b	-0.08652993
134	0x3cae9032	0.021308992
135	0xbdd2b7da	-0.10288973
136	0xbcb15d2a	-0.02165087
137	0x3cd1ceb8	0.025611266
138	0xbcad8665	-0.021182248
139	0x3e128336	0.14307866
140	0xbe0fdd67	-0.14049302
141	0xbe229eb5	-0.15880854
142	0xbd608103	-0.054810535
143	0x3d8274ed	0.06369958
144	0xbde81252	-0.11331619
145	0xbe23fd64	-0.1601463
146	0x3cef3c6e	0.02920362
147	0xbdf723db	-0.12067386
148	0x3e262ecc	0.16228789
149	0xbd43610e	-0.04769998
150	0xbd2ae15b	-0.041718822
151	0xbdeee4f5	-0.11664764
152	0x3e03628f	0.12830566
153	0xbd6d2b1c	-0.05790244
154	0xbc18a4d4	-0.009316642
155	0xbb86b48e	-0.0041108793
156	0x3d95c90d	0.07313738
157	0xbb25c6a0	-0.0025295392
158	0x3d4f5d5a	0.050626136
159	0xbd115063	-0.035477053
160	0x3d8381f4	0.06421271
161	0xbd252568	-0.040318877
162	0xbd9fc01b	-0.07800313
163	0x3d8d88f4	0.06910887
164	0xbd8f5881	-0.06999303
165	0xbb45ca56	-0.0030180416
166	0x3d7971d0	0.060899556
167	0x3cab1f4f	0.020888953
168	0xbd2a5012	-0.041580267
169	0x3dbb03aa	0.09131558
170	0xbd94ceec	-0.0726603
171	0xbd386bac	-0.04502456
172	0xbd9042ea	-0.07044013
173	0x3d13223d	0.035921324
174	0xbd880895	-0.06642262
175	0x3dc594ec	0.09647545
176	0xbd9d05a8	-0.076670945
177	0x3d072291	0.03299195
178	0x3b77936c	0.003777708
179	0xbdd6976f	-0.104781024
180	0x3d3ae547	0.045628812
181	0xba83c493	-0.001005309
182	0xbd448c62	-0.047985442
183	0xbdef7fde	-0.116943106
184	0x3da5aa34	0.08089104
185	0x3d1ea3e3	0.038730513
186	0x3d3ae90b	0.045632403
187	0xbd8a54b9	-0.06754441
188	0x3e050eaf	0.12993883
189	0x3d8a5576	0.06754582
190	0x3d6c2574	0.057652906
191	0xbd524fac	-0.051345512
192	0x3c30275d	0.010751572
193	0x3d38e6bf	0.04514193
194	0x3cd6fb22	0.026242796
195	0x3d84e84f	0.06489622
196	0x397c8e1a	0.0002408553
197	0xbd7e852a	-0.062138714
198	0xbde50798	-0.11183089
199	0x3e2da1a1	0.16956188
200	0x3e0f6cd4	0.14006358
201	0xbd1a1636	-0.03761884
202	0x3d3498dd	0.044091094
203	0xbba6f649	-0.0050952774
204	0x3da6a545	0.081369914
205	0xbd830c9b	-0.06398889
206	0xbe1aed3d	-0.15129562
207	0xbd2a9a06	-0.041650794
208	0x3d329d8c	0.04360728
209	0x3dcdb233	0.100437544
210	0x3daa07eb	0.083022915
211	0x3e050b45	0.1299258
212	0x3e0836ae	0.13302109
213	0xbdc9237d	-0.09821222
214	0xbe2ffec4	-0.17187029
215	0xbc7f8fcc	-0.015598249
216	0x3d136ace	0.03599053
217	0xbc47cf85	-0.012195473
218	0x3d4e64ea	0.050389208
219	0xbd85ebc2	-0.06539108
220	0x3ce58e51	0.028021963
221	0x3d20156e	0.039082937
222	0x3c0578f7	0.008146516
223	0xbd64cb21	-0.05585778
224	0xbdd9aca7	-0.10628634
225	0x3e32d97a	0.17465773
226	0xbd995650	-0.07487166
227	0xbd3868ab	-0.045021694
228	0x3d4b6e4a	0.049665727
229	0x3d86c88c	0.0658122
230	0xbd5da849	-0.054115567
231	0xbccc112b	-0.02491053
232	0xbd5faeae	-0.054609947
233	0x3e90ed25	0.28305927
234	0x3d522437	0.05130407
235	0xbd2226c4	-0.03958775
236	0xbd6b3a8b	-0.057428878
237	0xbe04914f	-0.12946056
238	0xbdfb9ad8	-0.122853935
239	0x3dc074a6	0.09397249
240	0xbda18214	-0.078861386
241	0xbe1c0d5f	-0.15239476
242	0xbc9166c0	-0.01774919
243	0x3da97a7f	0.082753174
244	0xbd9ef78f	-0.07762062
245	0xbe01ac69	-0.12663426
246	0xbda3533d	-0.07974861
247	0x3dd6140a	0.10453041
248	0xbdc11812	-0.09428419
249	0xbe30175b	-0.1719641
250	0xbd0e0c73	-0.03467984
251	0x3d8b83b4	0.0681223
252	0xbd5c1a4f	-0.053736027
253	0xbde54ae1	-0.11195923
254	0xbe2d63f0	-0.16932654
255	0x3d72860d	0.059209872

lstm.weight_ih_l1 f4 [256, 64]
0	0x3df8a9ff	0.12141799
1	0x3d20604b	0.039154332
2	0xbd30a378	-0.043124646
3	0x3d043e86	0.03228619
4	0x3d38bd17	0.045102205
5	0xbe160616	-0.14650759
6	0xbdcd47d0	-0.10023463
7	0x3c9f5ed9	0.019454407
8	0x3d75d598	0.060018152
9	0x3e083ce8	0.13304484
10	0xbe3710cb	-0.178775
11	0xbe065332	-0.13117674
12	0xbdebe5c5	-0.115184344
13	0x3e1c24a9	0.1524836
14	0xbde6fb9c	-0.112784594
15	0x3e1e4736	0.15456852
16	0x3e219517	0.1577953
17	0xbc47c829	-0.012193718
18	0x3d86814f	0.065676324
19	0x3da50bef	0.08058917
20	0xbd4ffcee	-0.050778322
21	0x3e20ab92	0.15690449
22	0xbd179b1c	-0.03701316
23	0x3e191a07	0.14951335
24	0xbd29d721	-0.04146493
25	0x3d21227e	0.039339535
26	0x3dd78808	0.10523993
27	0xbd9e8b3f	-0.07741403
28	0xbc14240c	-0.009041797
29	0xbdd08536	-0.10181658
30	0xbc6e4582	-0.014542939
31	0x3bba998a	0.005694573
32	0xbcc503f7	-0.024049742
33	0xbdec046d	-0.11524282
34	0xbdda175c	-0.10648987
35	0x3ce611cd	0.02808466
36	0xbde8f9a8	-0.11375743
37	0xbd63770d	-0.055533458
38	0xbe43f459	-0.1913618
39	0x3c7a7169	0.015285828
40	0xbde4436d	-0.11145673
41	0x3d2d0501	0.0422411
42	0x3d70059a	0.058599092
43	0x3d87d1db	0.06631824
44	0xbdb13442	-0.086525455
45	0x3d720f96	0.059096895
46	0xbdb351c7	-0.08755832
47	0xbde2cffa	-0.11074825
48	0x3c5dc47b	0.013535614
49	0xbdc7b0d6	-0.09750526
50	0x3d21080d	0.03931432
51	0x3cf55e36	0.02995215
52	0xbdbebcbf	-0.09313344
53	0x3df66e66	0.120327756
54	0x3db3f6d0	0.0878731
55	0xbd9ae80b	-0.0756379
56	0xbdc48f8f	-0.09597694
57	0x3cf5f307	0.030023111
58	0x3e11222f	0.14173196
59	0xbcf6f528	-0.030146196
60	0x3dcbf670	0.099591136
61	0xbdb95b20	-0.09050584
62	0x3c8d7737	0.01726876
63	0x3e58884c	0.21145743
64	0x3e12e7af	0.14346193
65	0x3bed02bc	0.007232992
66	0x3e02308e	0.12713835
67	0xbe04ff72	-0.1298807
68	0xbca2769f	-0.019831954
69	0xbda4b2a4	-0.080418855
70	0xbd35c2b6	-0.044375144
71	0xbdb4b931	-0.08824385
72	0x3b271378	0.0025493782
73	0x3e3fddc3	0.18736939
74	0xbe1a7a6f	-0.15085767
75	0xbcec6d51	-0.02886072
76	0xbe089b4a	-0.13340488
77	0x3d8d1321	0.06888414
78	0x3d6af988	0.057366878
79	0x3cff1c9f	0.031141577
80	0x3c4c4dd0	0.012469724
81	0xbda3c755	-0.07997004
82	0x3c338a94	0.010958333
83	0xbd4c9a6a	-0.04995195
84	0xbdaa6790	-0.08320534
85	0xbd685d0f	-0.056729373
86	0xbd0d2876	-0.034462415
87	0x3e0e10eb	0.13873641
88	0xbe3c289e	-0.18374869
89	0x3dad23ac	0.084540695
90	0x3deca1d3	0.11554303
91	0xbdf6d871	-0.12053002
92	0x3e149288	0.14509022
93	0xbceb93e7	-0.028757049
94	0x3db8722f	0.09006154
95	0xbd7edb1a	-0.06222067
96	0xbd1c4202	-0.038148887
97	0xbdf442f0	-0.1192683
98	0xbeb6298c	-0.35578573
99	0x3df24258	0.1182906
100	0x3da177bb	0.07884165
101	0xbd4cdede	-0.05001723
102	0x3d654f8e	0.055984072
103	0xbe4b1a8d	-0.19834347
104	0xbe04e1ef	-0.12976812
105	0xbd200012	-0.039062567
106	0xbcd2b1d0	-0.025719553
107	0x3cd41ca1	0.025892558
108	0x3e163533	0.14668731
109	0xbd9de2f5	-0.07709304
110	0x3debe748	0.11518723
111	0xbdc3ef05	-0.09567074
112	0xbe284f85	-0.16436584
113	0xbdba3d46	-0.09093718
114	0x3e2e17b7	0.17001234
115	0xbd9b99d9	-0.075977035
116	0xbe56cc1e	-0.20976302
117	0x3e118eb2	0.1421459
118	0x3dcfd8ed	0.10148797
119	0xbdef0b69	-0.11672098
120	0xbd8ed8c1	-0.06974936
121	0xbdb5ce74	-0.088772684
122	0x3e047578	0.12935436
123	0x3d305140	0.043046236
124	0x3da199c2	0.07890655
125	0xbd025c8e	-0.03182655
126	0xbdd9f560	-0.10642505
127	0x3dd280da	0.10278483
128	0x3deacb8a	0.11464603
129	0xbd7a486b	-0.06110422
130	0x3c1bb74a	0.009504149
131	0xbbb66dfe	-0.0055673113
132	0xbcc2a752	-0.023761425
133	0xbd316139	-0.04330561
134	0x3d14f97b	0.036370736
135	0xbd16c3b8	-0.036807746
136	0xbe83240d	-0.25613442
137	0x3e9368de	0.28790945
138	0xbdbedb14	-0.093191296
139	0x3de40dc9	0.11135442
140	0xbd533f6f	-0.051574167
141	0x3ccde43c	0.025133245
142	0xbbd874a0	-0.0066056997
143	0x3d828288	0.06372553
144	0x3d0d8283	0.034548294
145	0x3e28dd89	0.16490759
146	0xbe7c614f	-0.24646495
147	0x3d0951cf	0.033525284
148	0x3d732660	0.05936277
149	0x3e57ce2a	0.21074739
150	0x3db790c9	0.089631625
151	0xbc37130a	-0.011173973
152	0xbd29f0a0	-0.041489244
153	0x3d2ce1c4	0.042207494
154	0xbdc50622	-0.0962031
155	0xbe4a64f6	-0.19765076
156	0x3da24b4a	0.079245165
157	0x3cf741e7	0.030182792
158	0xbc8944a7	-0.016756369
159	0x3e487bca	0.19578472
160	0xbdfb1bdf	-0.12261175
161	0x3d95f635	0.07322351
162	0xbd5b41f9	-0.053529713
163	0xbd816d79	-0.063197084
164	0x3d95b86c	0.07310566
165	0x3d7ddf6a	0.061980642
166	0x3c133e81	0.00898707
167	0x3dcb96e9	0.09940893
168	0xbe5b7dc9	-0.21434702
169	0x3dda33db	0.10654422
170	0x3e041922	0.12900212
171	0xbdc6d01d	-0.09707663
172	0x3dda336e	0.10654341
173	0xbc2f7ef1	-0.0107114175
174	0x3d15603f	0.03646874
175	0x3c54dce7	0.01299212
176	0x3d369d0f	0.044583376
177	0x3d6ba66c	0.05753176
178	0x3d8bc2ba	0.068242505
179	0xbe00ef23	-0.12591223
180	0x3d422f5c	0.047408447
181	0x3cf80964	0.030277915
182	0xbe0c8a89	-0.13724722
183	0xbdd048df	-0.10170149
184	0x3d94bc42	0.0726247
185	0x3e0e0785	0.13870056
186	0x3d899dc7	0.06719547
187	0xbe47cd56	-0.19511923
188	0x3d39b1d1	0.045335595
189	0x3d34fbf8	0.04418561
190	0x3d81edef	0.0634421
191	0x3d0b53ba	0.034015395
192	0x3cd29a0a	0.025708217
193	0xbdf75e16	-0.12078492
194	0x3d578f1a	0.052626707
195	0xbde88c5a	-0.11354895
196	0x3c434bf1	0.011919961
197	0xbe42710e	-0.1898844
198	0xbdf508fb	-0.119646035
199	0x3e565351	0.2093022
200	0x3d963fed	0.073364116
201	0x3d2c21a5	0.042024273
202	0xbe03b2f8	-0.1286124
203	0xbea80d74	-0.32822764
204	0xbd94df9d	-0.07269213
205	0xbc6617cb	-0.014043759
206	0x3c347add	0.011015621
207	0x3d31a23b	0.043367606
208	0x3dd3b47b	0.10337158
209	0xbdf9a9e8	-0.1219061
210	0xbe2bf2b0	-0.16791797
211	0x3d5c8d54	0.05384572
212	0xbd2ff9d1	-0.042962853
213	0xbd88f26f	-0.066868655
214	0xbe3059eb	-0.17221801
215	0x3e35d83a	0.17758265
216	0xbe039efb	-0.12853615
217	0x3d98519e	0.07437442
218	0x3e5af909	0.21384062
219	0xbe015c4f	-0.12632869
220	0x3db08e85	0.086209334
221	0xbd564287	-0.05230954
222	0x3d06bfd6	0.032897793
223	0xbdf5e9e2	-0.120075
224	0x3dcd6303	0.100286506
225	0x3cfbf144	0.030754693
226	0xbcb7eb8c	-0.022451185
227	0xbcc425c0	-0.023943782
228	0xbd01a4cb	-0.0316513
229	0x3d9a4483	0.07532599
230	0xbeb8fa84	-0.36128628
231	0xbd6c42d6	-0.057680927
232	0x3e16c021	0.14721729
233	0x3e43100d	0.19049092
234	0x3dbb952c	0.09159312
235	0x3d805a69	0.06267244
236	0x3d5bc73e	0.05365681
237	0x3e2746b6	0.16335568
238	0x3d90f54d	0.070780374
239	0xbe2e003f	-0.16992281
240	0x3e11a7a2	0.14224103
241	0xbd7f2a27	-0.06229606
242	0x3db7ef86	0.08981232
243	0xbe0241df	-0.1272044
244	0x3c082c0b	0.008311282
245	0x3e006e61	0.12542106
246	0xbd760c4f	-0.060070332
247	0xbd34d8fe	-0.044152252
248	0x3cafbcba	0.021452297
249	0xbd16430d	-0.03668504
250	0x3df90e91	0.121609814
251	0x3cae9f8d	0.021316314
252	0x3e05f4d8	0.13081682
253	0x3e108442	0.14112952
254	0x3b88ebe4	0.004178511
255	0x3dbff97f	0.093737595

lstm.weight_hh_l1 f4 [256, 64]
0	0x3d4ffd94	0.05077894
1	0xbc1f3725	-0.009717737
2	0xbd9bebf4	-0.07613364
3	0x3d4e2ef9	0.050337765
4	0xbd856ada	-0.06514521
5	0x3de85a66	0.11345367
6	0xbd5879fe	-0.052850716
7	0x3e56bb3d	0.20969863
8	0xbd4bca86	-0.04975369
9	0xbcd9f51d	-0.026606137
10	0xbcd95609	-0.026530283
11	0x3e167703	0.14693837
12	0x3e00eaf1	0.12589623
13	0xbdb91c8a	-0.090386465
14	0x3b72fe02	0.003707767
15	0xbd8fda5c	-0.070240706
16	0x3e193c55	0.14964421
17	0xbd24b650	-0.04021293
18	0x3d97d83a	0.07414289
19	0xbdbd3221	-0.09238077
20	0xbd245c60	-0.04012716
21	0x3e1a8745	0.15090664
22	0x3df40529	0.11915047
23	0xbda7877d	-0.08180139
24	0xbd70d94a	-0.058800973
25	0xbccdbc65	-0.025114248
26	0xbc72da6b	-0.014822583
27	0x3d47f952	0.048821755
28	0xbd994de3	-0.07485559
29	0x3d543b3a	0.051814295
30	0xbc10d176	-0.008839002
31	0x3d699dfe	0.05703544
32	0x3df129b4	0.11775532
33	0x3cf6c84f	0.030124811
34	0xbda144fd	-0.078744866
35	0x3dcb7a91	0.09935487
36	0x3c8a8e36	0.016913515
37	0xbb4047bb	-0.002933963
38	0x3d760400	0.06006241
39	0x3da74a02	0.08168413
40	0x3d0e53a7	0.034747746
41	0xbcf1544d	-0.029459143
42	0xbd8c41a3	-0.06848457
43	0x3d14447f	0.036198135
44	0x3c2e8352	0.010651426
45	0xbcabd9aa	-0.020977814
46	0x3cad98c9	0.021191018
47	0xbc2b9620	-0.010472804
48	0x3d10e68a	0.03537611
49	0xbd6fa76d	-0.05850928
50	0xbdcea0bc	-0.100892514
51	0xbc843c06	-0.016141903
52	0x3da664f1	0.08124722
53	0xbe77666e	-0.24160168
54	0xbcd4724e	-0.025933411
55	0x3dfd227a	0.123600915
56	0xbd808083	-0.06274512
57	0x3d8a686d	0.06758199
58	0xbd4533c7	-0.04814508
59	0xbd895ee3	-0.06707551
60	0xbdd94afa	-0.10610004
61	0x3d9bf195	0.076144375
62	0xbde7b500	-0.1131382
63	0x3c5b7dce	0.013396693
64	0xbdd4cd12	-0.103906766
65	0xbda94494	-0.08265033
66	0x3c5b9cf2	0.013404118
67	0xbd2cfb8c	-0.04223208
68	0xbdfc2e80	-0.12313557
69	0x3d61abd9	0.055095527
70	0xbe0174b5	-0.12642176
71	0x3e5da843	0.21646218
72	0xbc101ea9	-0.008796372
73	0x3e248bb3	0.16068916
74	0xbcb2cc97	-0.021826072
75	0x3da062b2	0.07831325
76	0xbcf78b8b	-0.030217906
77	0xbd920dd2	-0.07131542
78	0xbe1c740e	-0.15278646
79	0xbd345c9a	-0.044033624
80	0x3ce6e837	0.0281869
81	0xbdda3435	-0.10654489
82	0x3db8e9de	0.090289816
83	0x3cbfb4ba	0.023401607
84	0x3e0cc68a	0.13747612
85	0x3e06bc91	0.1315787
86	0x3a9714c8	0.0011526579
87	0x3d9e43ea	0.07727797
88	0x3e754521	0.23952152
89	0xbb84536b	-0.0040382645
90	0xbe109537	-0.14119421
91	0xbdd2284c	-0.10261592
92	0x3e062e1f	0.13103531
93	0xbc88cd2c	-0.016699396
94	0xbd2701ea	-0.04077331
95	0xbd806c8f	-0.06270706
96	0xbc3c2240	-0.011482775
97	0xbcbb8a3d	-0.022893066
98	0x3ddc4fb3	0.10757389
99	0x3d8997e1	0.06718422
100	0x3d07b2e3	0.033129584
101	0x3d34bbcc	0.04412441
102	0x3d8f4791	0.06996072
103	0xbe1f7371	-0.15571381
104	0x3d439416	0.047748648
105	0xbdcd43e0	-0.10022712
106	0xbcad6df3	-0.021170592
107	0x3cffc11c	0.031220011
108	0xbcd5113b	-0.026009193
109	0xbe02b646	-0.12764844
110	0xbd154cc4	-0.036450163
111	0x3e0d1d0b	0.1378061
112	0xbd4c2466	-0.0498394
113	0x3dc9c00d	0.09851084
114	0xbd973e25	-0.073849
115	0xbdb799c7	-0.089648776
116	0xbb5b8845	-0.003349797
117	0xbd47722c	-0.048692867
118	0x3bcf062e	0.0063178753
119	0xbb99342e	-0.0046754098
120	0xbde10d1a	-0.10988827
121	0x3e206ffe	0.15667722
122	0xbd65b30d	-0.05607896
123	0xbd1b47aa	-0.03791014
124	0xbdaabf44	-0.08337262
125	0x3ded97af	0.11601197
126	0xbd8a4dad	-0.06753097
127	0xbda921e2	-0.08258416
128	0x3cf19f44	0.02949489
129	0x3cba9121	0.022774281
130	0x3ca00f15	0.019538442
131	0x3c71f581	0.014768005
132	0x3d8430f0	0.064546466
133	0xbdd8d4d1	-0.105874665
134	0x3cc392d9	0.023873733
135	0x3d8e0f11	0.069364674
136	0x3d38d17b	0.04512165
137	0x3d929c22	0.07158686
138	0xbb29aba8	-0.0025889669
139	0x3e51f635	0.20504077
140	0x3d5d7253	0.054064106
141	0x3d4908e2	0.049080737
142	0xbda47f36	-0.08032076
143	0xbc64d3f4	-0.013966549
144	0xbba70754	-0.005097309
145	0xbd60c040	-0.054870844
146	0x3e35780b	0.17721574
147	0x3de35591	0.11100305
148	0x3e1f56c8	0.15560448
149	0x3d1f6e19	0.038923357
150	0x3c3cf3be	0.011532722
151	0xbd707ec6	-0.05871465
152	0x3d944c87	0.07241159
153	0xbdb89d20	-0.09014344
154	0xbbc316f7	-0.0059536654
155	0xbd564c2b	-0.052318733
156	0xbdc3c292	-0.09558596
157	0x3d90780a	0.07054146
158	0xbe23f754	-0.16012317
159	0xbc667005	-0.0140647935
160	0xbcd6437b	-0.026155224
161	0xbe0dd0e1	-0.13849212
162	0x3da1d7c4	0.07902482
163	0x3de65810	0.11247265
164	0xbdf1a68c	-0.117993444
165	0xbdfdf005	-0.12399296
166	0xbd914b48	-0.07094437
167	0x3da8b11c	0.08236906
168	0x3dc4b271	0.096043475
169	0xbd1e6cd4	-0.038678005
170	0x3d0515d0	0.032491505
171	0x3d300bc1	0.04297996
172	0xbdf607fd	-0.120132424
173	0x3dc5b63c	0.09653899
174	0xbe01a235	-0.12659533
175	0x3dbf2791	0.093337186
176	0x3d87a10c	0.06622514
177	0x3d1c9732	0.03823013
178	0xbdc5f954	-0.09666696
179	0x3d5b8615	0.053594667
180	0x3d9bf7e5	0.076156415
181	0x3cff6981	0.031178238
182	0xbd11c2de	-0.03558623
183	0x3ba20de6	0.0049455045
184	0xbd4052eb	-0.046954077
185	0xbd90d768	-0.070723355
186	0xbb9d1007	-0.0047931704
187	0x3c2b59eb	0.01045845
188	0x3d3652b3	0.044512462
189	0xbd8ed09a	-0.06973381
190	0xbe318472	-0.1733568
191	0xbd3821dd	-0.04495417
192	0xbd597702	-0.05309201
193	0x3e17289a	0.14761582
194	0xbd1cfcd5	-0.038327057
195	0xbd3fd3da	-0.046832897
196	0x3e1c3ec7	0.15258323
197	0xbbb49953	-0.0055114417
198	0xbd8ba3ee	-0.068183765
199	0x3cb1e745	0.021716723
200	0xbda7c6f4	-0.08192244
201	0x3d773dd4	0.0603617
202	0xbdc7db9d	-0.09758685
203	0xbd44cb4f	-0.048045453
204	0x3e1c9319	0.15290488
205	0x3dd45dbc	0.10369441
206	0xbdd13788	-0.1021567
207	0xbd329f98	-0.04360923
208	0x3deb6112	0.11493124
209	0xbdfbf62c	-0.12302813
210	0xbd07e490	-0.03317696
211	0x3bb97a9e	0.005660369
212	0x3dd6111f	0.10452484
213	0x3dbd6936	0.09248583
214	0xbccc8ff7	-0.024970992
215	0x3d7844bf	0.060612436
216	0x3d6e785e	0.05822026
217	0x3e239955	0.1597646
218	0xbdb28434	-0.08716622
219	0x3d017eb8	0.03161499
220	0xbd821167	-0.063509755
221	0x3dd3d6ce	0.10343705
222	0xbd9c277f	-0.07624721
223	0xbe31657d	-0.17323871
224	0x3db42bc6	0.087974116
225	0xbd985a2f	-0.07439076
226	0xbbdd3929	-0.006751199
227	0xbda31dca	-0.07964666
228	0xbd8b069a	-0.067883685
229	0xbdff902d	-0.12478671
230	0x3e1e6aca	0.15470424
231	0xbdaf7249	-0.0856672
232	0xbdc3fabf	-0.095693104
233	0x3ca821f0	0.020523995
234	0x3d8115cd	0.06302986
235	0xbe0440c0	-0.12915325
236	0x3cad3176	0.021141749
237	0x3ddb5b87	0.10710817
238	0xbe3fae50	-0.18718839
239	0x3d8cf8ed	0.06883416
240	0xbd3d87e0	-0.04627216
241	0x3d628359	0.055301044
242	0x3d959880	0.07304478
243	0xbdb4a2ae	-0.08820091
244	0xbdab7e39	-0.083736844
245	0xbe895ec1	-0.26830104
246	0xbdde7cf2	-0.10863675
247	0xbd5d9fef	-0.054107603
248	0x3ddb7a9f	0.107167475
249	0x3b59b636	0.0033220178
250	0x3da70cf4	0.081567675
251	0xbb60ddb7	-0.003431184
252	0xbd1113ab	-0.035419147
253	0xbd242db2	-0.04008264
254	0xbcd564d2	-0.026049051
255	0xbdfed4ec	-0.124429554

lstm.bias_ih_l1 f4 [256]
0	0xbb8fd45c	-0.004389329
1	0xbcfafa7d	-0.03063702
2	0xbc39ef21	-0.011348517
3	0xbbbb8ddb	-0.0057236976
4	0xbdd29cb3	-0.10283794
5	0xbdb85127	-0.089998536
6	0x3be0494e	0.006844676
7	0xbc60a78d	-0.013711822
8	0xbe1e45d0	-0.15456319
9	0x3d78b452	0.06071884
10	0x3e0910d4	0.13385326
11	0xbcbbf5d1	-0.022944363
12	0x3deaac97	0.114587
13	0xbcb4228c	-0.02198913
14	0x3d784f76	0.060622655
15	0x3d35aab7	0.04435226
16	0xbcb4bfda	-0.022064138
17	0xbd869e7d	-0.06573198
18	0xbcc86b37	-0.024465187
19	0xbd8737ed	-0.06602464
20	0x3c974916	0.018467467
21	0xbd6e3187	-0.0581527
22	0x3dd204c0	0.10254812
23	0xbc18ed1e	-0.009333877
24	0x3db183d5	0.08667723
25	0xbe02cca5	-0.12773378
26	0xbd89ad99	-0.06722564
27	0x3d4dfbc1	0.05028892
28	0xbe28f4ab	-0.16499583
29	0x3d9def83	0.07711699
30	0xbe059222	-0.13044026
31	0xbe59a9d8	-0.21256196
32	0xbb5c85d2	-0.00336491
33	0xbc0222b0	-0.00794284
34	0xbe189dd2	-0.14903954
35	0xbd2ec8d8	-0.04267201
36	0x3d6881fe	0.056764595
37	0x3e1c97e9	0.15292324
38	0xbd291d04	-0.041287437
39	0xbcc248fd	-0.023716444
40	0xbd3092dd	-0.04310881
41	0xbcca636d	-0.024705613
42	0x3c1b31b7	0.009472302
43	0x3dc4f2f9	0.09616656
44	0x3db0b6cf	0.08628618
45	0xbe491f1c	-0.19640774
46	0xbd83b92f	-0.06431805
47	0xbd1af01e	-0.03782665
48	0xbe0461d7	-0.12927948
49	0x3d4b45d5	0.049627144
50	0xbc544f62	-0.012958379
51	0xbe2fe8ca	-0.17178646
52	0xbd98b59d	-0.07456515
53	0xbdbbd649	-0.09171731
54	0xbe173ebc	-0.14770025
55	0xbdf204b1	-0.11817301
56	0x3dd3f056	0.10348575
57	0x3a0657cf	0.0005124779
58	0xbdbfbd0d	-0.093622304
59	0x3dc9846e	0.09839712
60	0xbdbc492a	-0.091936424
61	0xbe11120e	-0.14167044
62	0x3d09bd5d	0.033627857
63	0x3d179e5b	0.037016254
64	0xbdc8fca2	-0.09813811
65	0x3db4ebac	0.08834013
66	0x3e2c137b	0.16804306
67	0x3d0d5157	0.0345014
68	0x3d1abcea	0.03777782
69	0xbc65b378	-0.014019839
70	0x3dc3d128	0.09561378
71	0x3dd6d375	0.10489551
72	0xbcd7888a	-0.026310224
73	0x3d601920	0.05471146
74	0xbd1cdd36	-0.0382969
75	0x3dd4e8bb	0.10395952
76	0x3dd4491f	0.10365509
77	0xbd125433	-0.03572483
78	0x3d6945c5	0.056951303
79	0x3db5cbc6	0.08876757
80	0x3dc8e44b	0.098091684
81	0x3e007845	0.12545879
82	0x3dd1b151	0.102388985
83	0x3e111ef5	0.14171965
84	0x3d564e42	0.052320726
85	0x3d62eb3b	0.055400115
86	0x3cc3399e	0.023831185
87	0x3af6517b	0.0018792594
88	0x3e1d70b2	0.15375021
89	0x3d22be87	0.039732482
90	0xbdd86e40	-0.105679035
91	0xbdf41358	-0.11917752
92	0xbc7115a5	-0.014714633
93	0x3c5f20ec	0.013618689
94	0xbe03184f	-0.12802242
95	0xbe24971e	-0.16073272
96	0x3dc33a74	0.095326334
97	0x3e2d068f	0.16897033
98	0xbdb5bd60	-0.08874011
99	0x3dd343f3	0.10315695
100	0x3dc3fa18	0.09569186
101	0x3dd77f35	0.1052231
102	0xbda0b816	-0.078476116
103	0x3dada714	0.08479133
104	0xbdbae506	-0.09125714
105	0xbcfb23b7	-0.030656679
106	0xbd9a8159	-0.07544202
107	0x3e033281	0.12812234
108	0xbd5c943b	-0.0538523
109	0xbdeca62a	-0.11555131
110	0x3dfee4c6	0.12445979
111	0x3e2c8228	0.16846526
112	0x3d315919	0.04329786
113	0x3dde0c75	0.1084222
114	0xbd13d1b3	-0.036088657
115	0xb9de34b1	-0.00042382398
116	0xbd379437	-0.044819083
117	0xbd2cdde4	-0.0422038
118	0x3c35569b	0.011068012
119	0xbd59f551	-0.053212468
120	0x3dbbe997	0.09175413
121	0x3d7686f5	0.0601873
122	0xbdcd9f8b	-0.10040196
123	0xbd6b9be2	-0.05752171
124	0xbdab1193	-0.083529614
125	0xbda91c25	-0.08257321
126	0x3d78d948	0.06075409
127	0xbbe54061	-0.0069962
128	0xbde19fc0	-0.11016798
129	0xbcef6747	-0.029224051
130	0xbd382c24	-0.04496397
131	0xbce7c7c4	-0.028293498
132	0x3d0daae4	0.034586802
133	0xbdf2a3aa	-0.11847623
134	0xbd5579c8	-0.052118093
135	0xbcd774ad	-0.026300753
136	0xbe0f2fa5	-0.13983019
137	0x3dbbf88d	0.09178267
138	0xbb0b1f11	-0.0021228234
139	0x3db28355	0.08716456
140	0x3d1a8a39	0.037729476
141	0xbbe53ff5	-0.0069961497
142	0xbc964153	-0.018341696
143	0xbdd37d12	-0.1032659
144	0x3d02022b	0.03174035
145	0xbc1975a7	-0.009366429
146	0xbc3aaffc	-0.011394497
147	0x3cfbe414	0.030748405
148	0x3e106a0b	0.14102952
149	0xbca77cbf	-0.020445226
150	0x3d5cc630	0.053899944
151	0xbdaa2049	-0.08306939
152	0xbd26270f	-0.040564593
153	0x3d8787b2	0.06617679
154	0xbd1274e4	-0.035756007
155	0x3da22665	0.079174794
156	0x3db6dfef	0.08929431
157	0x3db15786	0.08659272
158	0x3dd900e3	0.10595872
159	0xbc94b735	-0.018153766
160	0xbdebbce6	-0.11510639
161	0xbdef9d02	-0.11699869
162	0x3dbb8383	0.09155943
163	0x3e1e52b3	0.15461235
164	0xbe15172a	-0.14559618
165	0xbdf75e38	-0.12078518
166	0x3df6ce58	0.12051076
167	0xbdae5500	-0.08512306
168	0x3e1e7097	0.15472637
169	0xbad96a92	-0.0016587547
170	0xbd6cc79f	-0.05780756
171	0xbd2208b9	-0.0395591
172	0xbd9b424a	-0.07581003
173	0x3d1fb8e5	0.03899469
174	0x3d97e835	0.07417337
175	0x3cd5cea4	0.02609951
176	0xbd91e11d	-0.07123015
177	0xbd3215e7	-0.04347792
178	0xbdf4f93d	-0.11961601
179	0xbda9bda2	-0.08288123
180	0x3dcc9951	0.0999018
181	0x3d869700	0.0657177
182	0x3db19753	0.08671441
183	0xbd8227ee	-0.06355272
184	0xbdd0b32b	-0.101904236
185	0xbdbc3c0a	-0.09191139
186	0xbdd7dd3e	-0.105402455
187	0x3dd87a65	0.1057022
188	0x3dec69b7	0.11543601
189	0xbd04fde4	-0.03246869
190	0xbd403a5d	-0.04693066
191	0x3ddef6c3	0.1088691
192	0xbd55968a	-0.05214552
193	0xbd12e142	-0.035859354
194	0xbd04d7e2	-0.032432444
195	0xbc0a5bd2	-0.008444743
196	0x3ce0a0f9	0.027420508
197	0x3d814122	0.06311251
198	0xbd788624	-0.0606748
199	0xbdd930fa	-0.10605045
200	0xbe20d4a7	-0.1570612
201	0x3c205c99	0.009787702
202	0xbdf3bf17	-0.11901682
203	0x3dd40276	0.10352032
204	0xbe022ab7	-0.12711607
205	0x3adb8e26	0.0016750738
206	0xbda0940a	-0.07840736
207	0xbd2e9e22	-0.042631276
208	0x3d0184a2	0.03162063
209	0x3d120849	0.035652433
210	0xbdefa590	-0.117015004
211	0xbdcceaeb	-0.100057445
212	0xbdef4154	-0.11682382
213	0x3c2b1814	0.010442752
214	0xbd2d8a49	-0.042368207
215	0x3c8fcf7b	0.01755499
216	0x3d979d67	0.07403069
217	0xbe0376b2	-0.12838247
218	0xbdcdfc66	-0.10057907
219	0xbb66d87f	-0.0035224257
220	0xbe2d0193	-0.16895132
221	0xbcb3f409	-0.021966951
222	0xbe174d5b	-0.14775603
223	0xbe59e7d1	-0.21279837
224	0xbdabfa42	-0.08397342
225	0xbd4ee78b	-0.050513785
226	0x3c8d842a	0.017274935
227	0xbdc86388	-0.09784609
228	0xbe0abc6c	-0.1354844
229	0xbdd1e9dd	-0.10249684
230	0xbe0b5c5e	-0.13609454
231	0xbe204757	-0.15652214
232	0xbcc68a89	-0.02423598
233	0xbe399210	-0.18122125
234	0x3d133ec7	0.03594854
235	0xbaa5f27c	-0.0012660767
236	0xbd88987d	-0.0666971
237	0xbcb90fa0	-0.022590458
238	0x3d426926	0.04746356
239	0xbc7fbc8b	-0.015608917
240	0xbd06b18d	-0.03288417
241	0xbdd39896	-0.10331838
242	0xbe126b87	-0.14298831
243	0xbd4f2782	-0.050574787
244	0xbdc4fddc	-0.09618732
245	0xbd90bc6c	-0.070671886
246	0xbc176c26	-0.009242093
247	0x3d2ae96f	0.041726526
248	0x3d817a72	0.06322183
249	0xbd927868	-0.07151872
250	0x3cd900ff	0.026489733
251	0x3cac660d	0.021044755
252	0xbe42a585	-0.19008453
253	0x3e23fb0d	0.16013737
254	0x3de33637	0.11094325
255	0xbdf41bc1	-0.11919356
