ai-service/trained_models/matching_nn.pt (torch, 16389 bytes, 7 tensors)

network.0.weight f4 [64, 7]
-0.40069807 -0.30475733 -0.14271191 0.27509147 0.24452505 -0.38698518 0.107707106 -0.06009572
-0.08094856 -0.0066866344 0.1236864 -0.17088962 0.043753576 0.058312308 -0.28131095 0.2943336
-0.03933788 -0.10380473 0.12090692 0.07562804 -0.19190943 -3.3114487e-11 0.0797424 -0.048375767
-0.07324813 -0.019337729 -0.012094155 0.016517516 -0.0010229667 -0.00031552004 -7.7312844e-11 -0.07706472
1.8963939e-10 -0.05885552 -5.1907887e-09 0.0096549 0.26674628 -0.025728697 0.26716372 -0.105973296
-0.11264029 0.1455673 -0.19645707 0.23183963 0.11319344 -0.149966 0.1810199 0.33928442
0.33287317 0.06982442 -0.18839812 0.10311739 -0.10174775 0.020105682 -0.31281084 0.24528608
0.08842783 0.253884 0.3409601 -0.22578132 0.2095137 0.04174797 0.13311319 4.4076823e-10
1.8735989e-08 -3.3023268e-11 -0.006708025 -1.1490184e-11 -5.721655e-12 -0.007511108 -0.12942429 0.055108756
-0.28892148 0.06630733 -0.020295404 0.03742135 0.06615733 0.14383656 -0.29677126 0.044237837
0.2332958 -0.12692323 -0.08264612 0.18648563 0.096282996 0.30304173 -0.024891023 -0.27058858
-0.09437694 -0.13529831 0.04285586 -0.29877597 0.019742412 0.21149467 0.11298625 0.04252414
-0.008349816 -0.106510036 0.02461559 0.00036165054 -0.072544366 0.08115715 -0.0023323682 0.011649289
-0.03630023 7.4186704e-05 1.704411e-07 0.03492691 -0.0092250025 -0.09547252 -1.7355436e-08 -0.07841394
-0.21479215 0.09622791 -0.33667576 0.17186329 0.11828635 0.21883488 -0.010211875 0.09881365
0.23409465 -0.29231292 -0.30703562 0.2591867 -0.049306903 -0.1747371 -0.14952199 -0.33211893
-0.10618593 0.0509106 0.06503085 -0.11966317 0.20813933 -0.02006513 -0.06599128 -0.0014743592
0.027004939 -0.009388466 0.021416286 0.0073261205 0.1930166 0.034366906 0.15478514 0.33318514
0.15826462 -0.006592882 0.12271325 4.8138066e-10 -7.731856e-06 0.002988961 7.4832187e-06 -0.008357121
-0.07162993 -1.983151e-08 -0.0418603 -5.4609664e-11 0.039672226 -0.0907741 0.070882834 0.0063324287
-1.1754377e-11 -1.687359e-11 2.08064e-06 -1.0588636e-11 2.358579e-09 -0.051521618 -0.00937373 -0.06520146
-0.032482903 0.08510021 0.30410028 -0.07004271 0.2532482 0.006184686 0.12415051 0.026532108
1.9463086e-12 4.7462816e-09 1.7045247e-08 -3.569969e-09 -0.07799651 2.0497616e-08 -0.101977505 -0.28090343
-0.33450803 0.29921445 0.19888268 -0.30206865 0.17741793 -0.3599496 0.2354777 -0.16007
-0.24795935 -0.033884678 0.13109563 -0.16189848 -0.34555218 -0.3932114 0.14439242 0.19771627
0.306281 0.14186174 -0.22936729 -1.1262461e-10 -0.006150253 0.032265965 -0.0001425158 -0.019979361
-3.7478798e-10 -0.012277571 -0.07438135 0.03023238 -0.068469286 -0.039052352 0.08702537 -0.094577655
-0.26342294 0.17436786 -0.1581024 0.17308235 0.29475853 -0.23373386 -0.094583035 -0.029955862
-0.20352829 0.27314404 -0.44156608 0.20319122 -0.19486924 -0.38169435 0.11700266 -0.00015186408
1.2731707e-08 -0.009460078 1.8611257e-06 -2.019544e-07 0.08184818 -0.09068097 -0.18520826 0.16160525
-0.032653432 0.15752938 0.24279177 -0.25542423 -0.32571614 -0.152313 -0.23975909 -0.12542978
0.24789213 -0.21467172 0.14494772 0.26786157 0.33559653 -0.026807506 -0.049639482 0.33427858
00000000: 4c28 cdbe 2709 9cbe 1223 12be cad8 8c3e
00000010: c664 7a3e ec22 c6be 8b95 dc3d ee26 76bd
00000020: 5cc8 a5bd 8e1b dbbb 4c4f fd3d b0fd 2ebe
00000030: f336 333d e3d8 6e3d fd07 90be e5b2 963e
00000040: c220 21bd 9397 d4bd 0c9e f73d e0e2 9a3d
00000050: e883 44be 99a3 11ae fc4f a33d ab25 46bd
00000060: 1e03 96bd 286a 9ebc 9026 46bc be4f 873c
00000070: 1115 86ba 626c a5b9 4303 aaae 1cd4 9dbd
00000080: be82 502f 7c12 71bd a95a b2b1 962f 1e3c
00000090: f892 883e fdc4 d2bc afc9 883e 8708 d9bd
000000a0: f4af e6bd 980f 153e 0b2c 49be 5e67 6d3e
000000b0: f6d1 e73d b090 19be 485d 393e b0b6 ad3e
000000c0: 5a6e aa3e 1b00 8f3d 70eb 40be 362f d33d
000000d0: 2061 d0bd acb4 a43c be28 a0be 462c 7b3e
000000e0: a619 b53d 15fd 813e 5292 ae3e 3833 67be
000000f0: c28a 563e ebff 2a3d d34e 083e 9d50 f22f
00000100: e0f0 a032 e53c 11ae fece dbbb 3023 4aad
00000110: 1650 c9ac be1f f6bb cd87 04be b8b9 613d
00000120: 84ed 93be 23cc 873d 8c42 a6bc 2147 193d
00000130: 7f7d 873d e449 133e 67f2 97be bc32 353d
00000140: 18e5 6e3e 2af8 01be 5e42 a9bd 17f6 3e3e
00000150: 0530 c53d 4928 9b3e 42e8 cbbc 968a 8abe
00000160: b248 c1bd a48b 0abe a089 2f3d 2af9 98be
00000170: d7ba a13c 0f92 583e 5665 e73d cb2d 2e3d
00000180: abcd 08bc ef21 dabd a2a6 c93c ea9b bd39
00000190: 2492 94bd b835 a63d a5da 18bb a9dc 3e3c
000001a0: 8daf 14bd af94 9b38 7e02 3734 850f 0f3d
000001b0: 7724 17bc 1987 c3bd 0215 95b2 7d97 a0bd
000001c0: 79f2 5bbe 2313 c53d c460 acbe eefc 2f3e
000001d0: 1d40 f23d 4016 603e b54f 27bc d05e ca3d
000001e0: 82b6 6f3e 0aaa 95be c633 9dbe 1fb4 843e
000001f0: 09f6 49bd 48ee 32be 4b1c 19be 7e0b aabe
00000200: 0278 d9bd a287 503d e52e 853d f711 f5bd
00000210: 7a22 553e a15f a4bc 7026 87bd 493f c1ba
00000220: 7639 dd3c 15d2 19bc 3571 af3c f40f f03b
00000230: 25a6 453e 50c4 0c3d ff7f 1e3e 3e97 aa3e
00000240: 1f10 223e 1a09 d8bb 1651 fb3d 2752 0430
00000250: 12b8 01b7 72e2 433b 5c18 fb36 4eec 08bc
00000260: b6b2 92bd f459 aab2 b575 2bbd 042d 70ae
00000270: 587f 223d c5e7 b9bd 052b 913d 4380 cf3b
00000280: 02c9 4ead f26b 94ad 1fa1 0b36 fa46 3aad
00000290: 9014 2231 5508 53bd 4694 19bc 5888 85bd
000002a0: cb0c 05bd 0549 ae3d 08b3 9b3e 8d72 8fbd
000002b0: c0a9 813e e8a8 ca3b 9f42 fe3d dd59 d93c
000002c0: 94f5 082c bc14 a331 e56a 9232 8f53 75b1
000002d0: a2bc 9fbd bc12 b032 95d9 d0bd 93d2 8fbe
000002e0: a344 abbe a332 993e e7a7 4b3e bea8 9abe
000002f0: 0cad 353e 504b b8be 1121 713e 64e9 23be
00000300: 0ee9 7dbe a9ca 0abd ef3d 063e b7c8 25be
00000310: 37ec b0be 0153 c9be 9bdb 133e 2276 4a3e
00000320: ddd0 9c3e 3444 113e 42df 6abe 05aa f7ae
00000330: 1088 c9bb 5129 043d 4b70 15b9 c2ab a3bc
00000340: b80a ceaf dd27 49bc 4055 98bd e5a9 f73c
00000350: a039 8cbd 5cf5 1fbd 5b3a b23d eeb1 c1bd
00000360: 5fdf 86be 7d8d 323e 98e5 21be 803c 313e
00000370: 97ea 963e ee57 6fbe c0b4 c1bd ff65 f5bc
00000380: b869 50be 89d9 8b3e f314 e2be 5c11 503e
00000390: cd8b 47be 716d c3be 179f ef3d b43d 1fb9
000003a0: a4ba 5a32 71fe 1abc cbcb f935 ced8 58b4
000003b0: 05a0 a73d f2b6 b9bd 3ca7 3dbe d97b 253e
000003c0: 9bbf 05bd 624f 213e 689e 783e f7c6 82be
000003d0: 44c4 a6be f0f7 1bbe 6883 75be aa70 00be
000003e0: 6fd7 7d3e e7d2 5bbe 2d6d 143e 2725 893e
000003f0: 4fd3 ab3e 6a9b dbbc c552 4bbd 9026 ab3e

network.0.bias f4 [64]
0.30748644 -0.02911078 -0.0037817336 -0.045103967 4.223688e-11 0.042293455 -0.34059325 -0.025399486
-0.2575092 9.8590375e-05 0.09065391 0.14344433 0.31634 0.13457277 -0.08527985 0.0018051188
-0.08048779 0.14884646 0.3453582 -0.01709775 -0.33785552 -0.025883298 -0.066825695 0.00054273696
0.06395238 -0.05436114 0.057654746 0.43115133 0.09678228 -0.07065521 0.286006 0.052006695
0.17273934 9.4824094e-07 0.2171483 -0.116580516 0.023999775 -0.0055705095 0.20275588 -0.043840587
-0.15322235 -0.06531547 0.2189117 0.3048939 -0.07652636 -0.06575208 0.27550933 -0.114308566
5.737086e-12 0.17642456 0.12268388 -0.004075151 -0.3380022 0.11149234 0.40080354 0.27652135
-1.6719348e-05 0.13238016 0.060077775 0.12927313 0.022953033 -0.33384788 -0.00987175 0.009597777
00000000: dd6e 9d3e bb79 eebc f6d6 77bb f0be 38bd
00000010: 80c2 392e e73b 2d3d 3d62 aebe 9512 d0bc
00000020: 3fd8 83be 4ec2 ce38 c2a8 b93d 12e3 123e
00000030: 51f7 a13e 72cd 093e 34a7 aebd bc99 ec3a
00000040: c8d6 a4bd 356b 183e cad2 b03e 9510 8cbc
00000050: 66fb acbe 3609 d4bc e9db 88bd 7646 0e3a
00000060: 77f9 823d c9a9 5ebd 6227 6c3d debf dc3e
00000070: ca35 c63d aeb3 90bd 616f 923e f904 553d
00000080: 95e2 303e 9f8a 7e35 205c 5e3e c4c1 eebd
00000090: 2d9b c43c d288 b6bb 3d9f 4f3e 3092 33bd
000000a0: 52e6 1cbe 1ec4 85bd 642a 603e 0e1b 9c3e
000000b0: dab9 9cbd 07a9 86bd 8f0f 8d3e 9c1a eabd
000000c0: 14db c92c a4a8 343e b041 fb3d d888 85bb
000000d0: a00e adbe 1956 e43d 1f36 cd3e 3594 8d3e
000000e0: 8740 8cb7 aa8e 073e 1d14 763d 2d60 043e
000000f0: 0008 bc3c 1cee aabe 1fbd 21bc ff3f 1d3c

network.3.weight f4 [32, 64]
-0.006160717 -0.016459707 -0.041639194 3.3499007e-06 1.18593604e-07 -0.06672723 0.0557577 -0.025653668
0.08321524 1.5019054e-10 -0.1073427 0.020039286 -0.031227151 0.0010619061 1.9577888e-05 -5.914848e-10
-0.018853039 -0.043558124 0.0186382 0.0035236303 0.08468825 9.74085e-11 -1.1064831e-10 -1.266879e-11
0.09876841 -3.405887e-11 0.007474863 -0.06968666 -0.0015738455 -4.7123625e-09 -0.107009575 0.0025580747
0.028598733 1.7111295e-08 -0.046200916 -0.009614205 -0.06584099 1.7521326e-07 0.060051546 0.007842436
-0.011403495 0.03682578 0.10457448 0.06979386 0.06837788 -2.950439e-10 -0.018721182 0.118543714
2.1958635e-09 -0.103762254 0.13307144 2.7732176e-06 0.21711634 0.019950267 0.004491193 0.019785654
-8.893264e-10 -0.06243622 -0.031093946 -0.0032435176 0.10174012 0.12619004 -0.057680957 0.006392072
-0.008117139 -0.031147445 0.08700655 -1.4309669e-10 3.757127e-09 0.08170082 -0.020242775 0.114157155
-0.11030383 -1.4399239e-08 0.039000146 0.12601787 -0.011273743 0.06755778 5.6253772e-11 -6.772069e-06
0.10116337 0.06354728 0.080164514 -0.009625306 -0.062017918 1.7902833e-09 1.8136546e-08 7.149185e-11
0.001007251 -3.8688217e-09 -0.020264233 0.17384061 0.08663888 1.11905964e-10 0.1943171 -0.033694025
0.0037051616 -5.7586203e-06 -0.030406056 0.08773008 -0.055367395 2.5653611e-11 0.030552289 0.00941078
0.0070011993 0.031629965 -0.099091 -0.07269506 0.013271239 2.637733e-06 0.051856212 -0.06451418
2.0076933e-11 0.159854 -0.08867061 -1.6513792e-07 -0.0070172115 0.07039361 0.010409281 0.039039068
-4.968652e-10 0.091493905 0.13147302 0.12872723 -0.006819514 -0.059806027 0.024644794 -0.006443908
0.00865396 -2.3509974e-05 -0.0028091725 -5.310288e-10 2.0272703e-10 -0.03068469 0.021513114 -3.8406797e-06
0.0132750245 -2.8641683e-10 -0.001671944 -0.014104903 0.01660315 -0.02025879 -4.2506312e-10 -1.7311996e-07
0.0050000995 -0.0014539532 -0.020771436 -2.0481648e-10 0.007804673 -8.385114e-11 1.5833868e-09 1.4291657e-10
-0.025342315 -1.054991e-10 -0.017224772 0.027159512 0.00040888618 -1.1591977e-10 -0.00057002064 -0.00010808578
0.049126897 5.665487e-08 -0.027674416 -0.0013436737 -0.010378059 1.3632212e-10 -0.040579233 6.905224e-07
1.0161938e-09 0.058654834 -0.052660663 -0.030979002 0.0055298666 -4.9982164e-11 -0.00082101306 0.0022165363
-3.0727282e-11 -0.00018629091 -0.023491241 6.7964606e-10 -0.022033205 -5.891853e-05 0.014400757 -0.018366223
-2.9032408e-11 -0.00033390668 -0.0029563126 -3.5293697e-06 0.047974005 -0.006268037 -0.0016762025 -1.7963076e-06
-0.004581949 -0.07643274 0.03896732 2.512677e-09 -3.9457038e-09 0.09342382 -0.11889989 0.021046774
0.022223314 -3.3684438e-12 -0.0016173893 0.13661604 0.120027445 -0.016752232 -8.6651786e-10 -2.5099816e-09
-0.11320334 0.16692638 0.0031405177 -0.028056772 -0.012371665 -7.512535e-11 7.2408945e-08 -4.4506043e-10
0.04721261 -5.604986e-11 0.058809996 0.1543445 -0.020116877 1.0908348e-10 0.15004288 -0.109123416
0.017885832 2.9801545e-06 0.024123015 0.050233502 0.016792426 1.4324961e-09 0.12218035 0.015931137
-0.0025485603 0.019395271 -0.091304116 -0.09978067 -0.092061795 -1.3180056e-09 0.024561243 -0.046258025
-5.8653638e-12 0.17241533 0.074415095 -2.0903677e-08 -0.0844497 -0.025096415 0.153489 0.04175943
1.9587736e-05 0.11602082 0.11718476 0.09138896 0.117059775 -0.10303374 0.014327075 -0.0077995113
00000000: d7df c9bb 82d6 86bc dc8d 2abd dbce 6036
00000010: 86ad fe33 49a8 88bd 3062 643d a427 d2bc
00000020: c06c aa3d e122 252f 7dd6 dbbd 6e29 a43c
00000030: 15d0 ffbc a82f 8b3a 323b a437 0b96 22b0
00000040: b071 9abc 016a 32bd 23af 983c b5ec 663b
00000050: 0971 ad3d 1c34 d62e 7651 f3ae 28df 5ead
00000060: 1847 ca3d e1ca 15ae b2ef f43b e1b7 8ebd
00000070: 7e49 ceba 61ea a1b1 d627 dbbd 5fa5 273b
00000080: e447 ea3c 23fc 9232 2c3d 3dbd e684 1dbc
00000090: a4d7 86bd 4122 3c34 9cf8 753d 907d 003c
000000a0: bad5 3abc a1d6 163d 252b d63d 15f0 8e3d
000000b0: b409 8c3d bd33 a2af 2a5d 99bc 0cc7 f23d
000000c0: 0ae6 1631 4e81 d4bd e143 083e 841b 3a36
000000d0: bf53 5e3e be6e a33c dc2a 933b 8615 a23c
000000e0: c874 74b0 1fbd 7fbd bbb8 febc 3291 54bb
000000f0: 205d d03d f637 013e de42 6cbd 9674 d13b
00000100: c0fd 04bc ed28 ffbc 7d30 b23d 2356 1daf
00000110: 0a18 8131 c252 a73d 2dd4 a5bc 3acb e93d
00000120: f9e6 e1bd 8660 77b2 9ebe 1f3d d40a 013e
00000130: 81b5 38bc bc5b 8a3d 1e68 772e a13b e3b6
00000140: be2e cf3d 1425 823d 4b2d a43d 76b3 1dbc
00000150: 8006 7ebd fe0d f630 b0ca 9b32 5536 9d2e
00000160: bc05 843a 84ee 84b1 2d01 a6bc 4603 323e
00000170: ba6f b13d 7515 f62e 10fb 463e bf02 0abd
00000180: 4cd2 723b 2c3a c1b6 1f16 f9bc d4ab b33d
00000190: ecc8 62bd cca6 e12d cb48 fa3c ac2f 1a3c
000001a0: 516a e53b 6c8e 013d 39f0 cabd 26e1 94bd
000001b0: 9c6f 593c e803 3136 2e67 543d 0320 84bd
000001c0: 3c99 b02d c4b0 233e f098 b5bd c450 31b4
000001d0: a3f0 e5bb 862a 903d b08b 2a3c 6ee7 1f3d
000001e0: c893 08b0 2861 bb3d dda0 063e 12d1 033e
000001f0: 3b76 dfbb 2af7 74bd e1e3 c93c 6b27 d3bb
00000200: 57c9 0d3c 4937 c5b7 181a 38bb d4f7 11b0
00000210: 96e6 5e2f 765e fbbc 453c b03c 30df 80b6
00000220: 7d7f 593c 9675 9daf 2225 dbba 4018 67bc
00000230: 5403 883c c3f5 a5bc 51ae e9af dae2 39b4
00000240: e0d7 a33b 9392 beba dc28 aabc b732 61af
00000250: 58be ff3b ff63 b8ae 789e d930 7023 1d2f
00000260: b09a cfbc b7fe e7ae f71a 8dbc a07d de3c
00000270: c65f d639 07e9 feae 706d 15ba 1cac e2b8
00000280: 4939 493d b054 7333 75b5 e2bc 351e b0ba
00000290: bc08 2abc 44e3 152f 6936 26bd 575c 3935
000002a0: 24aa 8b30 0d40 703d b5b2 57bd adc7 fdbc
000002b0: e233 b53b ead2 5bae 4139 57ba 4f43 113b
000002c0: d823 07ae 1657 43b9 b470 c0bc d7d1 3a30
000002d0: fb7e b4bc 4a1f 77b8 27f1 6b3c c374 96bc
000002e0: 2c5f ffad 3210 afb9 b2be 41bb 1cda 6cb6
000002f0: 6480 443d 1b64 cdbb 06b4 dbba a918 f1b5
00000300: 2d24 96bb c588 9cbd 329c 1f3d 7bab 2c31
00000310: c792 87b1 fd54 bf3d c981 f3bd 496a ac3c
00000320: ab0d b63c 7d08 6dac 94fe d3ba 13e5 0b3e
00000330: f3d0 f53d fa3b 89bc c62f 6eb0 107c 2cb1
00000340: 27d7 e7bd c0ee 2a3e 25d1 4d3b 51d7 e5bc
00000350: 86b2 4abc d033 a5ae 3d7f 9b33 b0ac f4af
00000360: 0262 413d 8882 76ae c0e2 703d 7c0c 1e3e
00000370: 26cc a4bc 8ae0 ef2e d7a4 193e 197c dfbd
00000380: 4f85 923c aafe 4736 a19d c53c a5c1 4d3d
00000390: 4590 893c 7ae1 c430 b139 fa3d 0482 823c
000003a0: bf05 27bb d5e2 9e3c a7fd babd cf59 ccbd
000003b0: e58a bcbd 3325 b5b0 a934 c93c 0e79 3dbd
000003c0: 805e ceac a58d 303e f166 983d ac8f b3b2
000003d0: f7f3 acbd ff96 cdbc 382c 1d3e f00b 2b3d
000003e0: 5850 a437 539c ed3d 90fe ef3d 232a bb3d
000003f0: 09bd ef3d 5a03 d3bd 1cbc 6a3c 0b93 ffbb

network.3.bias f4 [32]
-0.1275203 0.026490252 -0.05204882 0.0102691 -0.11054635 -0.11118234 0.10212644 0.17273748
-0.06951594 0.06064932 0.1261807 0.01203572 0.044291355 0.14410794 -0.08863614 0.04515137
0.04616529 0.0034882673 0.06592974 0.053452164 -0.008092024 -0.030840987 0.06798564 -1.658534e-05
-0.042946503 0.13379098 0.0434252 0.021030953 0.07086079 0.13138245 -0.09018512 0.04530004
00000000: ae94 02be 1602 d93c 2531 55bd ba3f 283c
00000010: 2066 e2bd 91b3 e3bd ab27 d13d 18e2 303e
00000020: 605e 8ebd 6c6b 783d 8335 013e 7831 453c
00000030: da6a 353d 0891 133e dd86 b5bd a5f0 383d
00000040: d117 3d3d 6a9b 643b 2c06 873d a8f0 5a3d
00000050: 6994 04bc 3da6 fcbc 0e3c 8b3d bf20 8bb7
00000060: ace8 2fbd 8100 093e 9fde 313d 1b49 ac3c
00000070: 761f 913d 1f89 063e fab2 b8bd 898c 393d

network.6.weight f4 [16, 32]
-0.14792746 0.13016659 0.008119085 0.13393395 -0.051846415 0.092090376 0.014491206 0.18391824
-0.0019641756 -0.021246994 0.2229971 -0.0077729383 0.029523134 0.24904664 -0.15417042 0.17523783
-0.0074726706 -0.013371223 0.028389206 0.23260473 0.16412626 -0.026777824 -0.021857748 -3.4335008e-06
0.019678682 0.13326457 -0.055980556 0.027063573 -0.14489049 -0.09435285 -0.036683578 0.118437074
-0.00045611 -0.00018074762 2.2169278e-09 -0.0012382746 -0.000119204095 -0.000489107 -0.00083318877 -0.00011364461
5.4238928e-05 -0.0002078299 -0.00033127857 -9.2738155e-06 -0.00045299227 -0.0006953903 0.00098428 -0.0005085885
-0.0006783735 3.525923e-05 -0.000152495 -0.00063182885 -0.00076521246 -0.0011742774 0.0006165609 -6.9749744e-12
3.0119148e-07 -0.0011212388 -0.00023178494 -0.00051376777 -0.0022522968 -0.00034355273 0.0001914932 0.00035314503
0.058673706 0.17026478 -0.0004970535 0.04246893 -0.08623558 0.06737023 0.13255389 0.22435528
-0.008582179 0.020766467 0.06497075 -0.010910843 -0.04861689 0.15524203 -0.067361504 0.056628063
-0.028382719 -0.084657535 -0.063231565 0.12441437 0.119028434 0.044262663 -0.03670636 -2.9893062e-08
0.016749222 -0.072709106 0.026404858 0.015885858 -0.070610836 -0.031247098 -0.06952239 0.016754223
0.03568103 -0.000315898 0.00035941988 0.0015167404 0.15095767 0.043182436 -0.010580189 -0.0064576957
0.10407557 0.09702244 -0.04157172 0.012126919 -0.039205685 -0.027410097 0.11653728 -0.03151744
0.08548514 0.17349629 0.011687989 0.026924364 -0.018255241 0.16164036 0.032734603 0.0021007175
-0.006472288 0.044912532 0.021171428 -0.022039665 0.124343686 0.058730498 0.10027462 0.083872505
0.12360107 -0.049995303 -0.0069428207 -0.0230488 0.06441621 0.13833293 -0.053257324 -0.12566696
0.015607126 0.17724855 -0.03503561 0.0063217254 0.08842548 0.043393686 0.01267432 -0.04190562
-0.043921318 0.026640907 0.077384315 -0.18468635 -0.055628 0.19420259 0.058744505 2.0055266e-11
-0.004830133 0.009086493 -0.15782249 -0.062521785 -0.04411358 0.11805919 0.22593813 0.13842161
0.08746266 -0.097907215 -0.017797649 0.12573597 0.20744345 -0.07093495 -0.016742066 -0.028511478
0.22902355 0.099465795 -0.0038407925 0.027413648 0.07558522 0.08806012 0.09986292 -0.084087454
0.16937432 0.11120106 0.12043679 -0.14594777 0.169146 0.1655452 -0.0072109075 0.00047385157
-0.029440122 0.12875982 -0.07775161 -0.067119054 0.071909964 0.017925939 -0.040644653 0.09763474
-0.05276841 -0.0069648745 8.9850255e-05 0.06623953 -0.04953978 -0.02887756 0.016454905 -0.0019885902
-0.040171307 -0.023889827 0.060446363 -0.011442245 0.02351552 0.04388358 -0.04860909 -0.0030127163
-0.04397311 -0.06585719 -0.050120216 0.033365928 -0.010174958 -0.030612895 -0.001728042 6.06379e-13
0.010375944 0.01776119 0.02187193 0.025874805 -0.05651207 0.039603334 -0.058142167 -0.040810175
0.040198665 0.05572069 -2.1466143e-08 -0.06390024 -0.0007529911 -0.022211922 -0.06491032 -0.07448958
-0.019588986 -0.01644355 -0.00018472748 -0.00020849881 0.039657667 0.12497998 -0.06339775 -0.06856049
-0.041910607 -0.033951722 -0.02364566 0.049905114 0.058038358 0.0155731 -0.00019518557 3.8509484e-09
-0.0016622527 0.0305268 0.056547772 0.008445135 -0.01696972 0.08314361 -0.013048498 -0.030384537
00000000: 4c7a 17be 644a 053e e905 053c fb25 093e
00000010: e85c 54bd e199 bc3d 866c 6d3c 1055 3c3e
00000020: 66b9 00bb 2d0e aebc 5a59 643e 22b4 febb
00000030: 80da f13c 1506 7f3e dade 1dbe 8c71 333e
00000040: 4edd f4bb f912 5bbc 7b90 e83c ef2f 6e3e
00000050: b710 283e 2b5d dbbc 050f b3bc 186b 66b6
00000060: 3035 a13c 8276 083e de4b 65bd 6db4 dd3c
00000070: 2c5e 14be 113c c1bd 8541 16bd 238f f23d
00000080: 0c22 efb9 1287 3db9 9b58 1831 9a4d a2ba
00000090: 36fd f9b8 6a37 00ba 5a6a 5aba 7c54 eeb8
000000a0: 9b7e 6338 eaec 59b9 75af adb9 bc96 1bb7
000000b0: 987f edb9 da4a 36ba f502 813a cc52 05ba
000000c0: e0d4 31ba 4fe3 1338 11e7 1fb9 51a1 25ba
000000d0: 8a98 48ba 36ea 99ba b4a0 213a fc68 f5ac
000000e0: 71b3 a134 88f6 92ba 4c0b 73b9 5fae 06ba
000000f0: 459b 13bb de1e b4b9 91cb 4839 5326 b939
00000100: d753 703d e459 2e3e b24c 02ba e7f3 2d3d
00000110: 489c b0bd 67f9 893d 35bc 073e 64bd 653e
00000120: 459c 0cbc 701e aa3c 620f 853d 64c3 32bc
00000130: 8122 47bd c4f7 1e3e d4f4 89bd d4f2 673d
00000140: e082 e8bc ee60 adbd 8d7f 81bd f6cc fe3d
00000150: 2ec5 f33d c44c 353d 6859 16bd c563 00b3
00000160: aa35 893c 83e8 94bd 004f d83c 0f23 823c
00000170: 6a9c 90bd eaf9 ffbc c161 8ebd 2740 893c
00000180: 4626 123d 1d9f a5b9 8570 bc39 5dcd c63a
00000190: a694 1a3e 11e0 303d 8758 2dbc 149b d3bb
000001a0: 9325 d53d b3b3 c63d 1c47 2abd fcaf 463c
000001b0: 2496 20bd 248b e0bc 19ab ee3d 6e18 01bd
000001c0: d512 af3d 03a9 313e fb7e 3f3c 7c90 dc3c
000001d0: 048c 95bc 0d85 253e b814 063d 31ac 093b
000001e0: 7d15 d4bb 34f6 373d b46f ad3c 878c b4bc
000001f0: e7a7 fe3d 648f 703d c85c cd3d 59c5 ab3d
00000200: 8f22 fd3d e0c7 4cbd 9a80 e3bb d6d0 bcbc
00000210: a5ec 833d 26a7 0d3e 5a24 5abd d7ae 00be
00000220: 08b5 7f3c a580 353e 8081 0fbd 7a26 cf3b
00000230: 6b18 b53d 94bd 313d f3a7 4f3c 3aa5 2bbd
00000240: d7e6 33bd 083e da3c ab7b 9e3d 6b1e 3dbe
00000250: 30da 63bd 0bdd 463e 149e 703d 7268 b02d
00000260: 1846 9ebb 84df 143c 389c 21be 6c0b 80bd
00000270: 71b0 34bd 04c9 f13d 535c 673e 65be 0d3e
00000280: a01f b33d 9483 c8bd 60cc 91bc eec0 003e
00000290: 0e6c 543e 5846 91bd a826 89bc e790 e9bc
000002a0: 2685 6a3e b9b4 cb3d ceb5 7bbb 9692 e03c
000002b0: 6ccc 9a3d dd58 b43d ee84 cc3d 0b36 acbd
000002c0: 7670 2d3e 62bd e33d 90a7 f63d 5573 15be
000002d0: 9c34 2d3e ae84 293e 7a49 ecbb 486f f839
000002e0: 692c f1bc 9dd9 033e 3c3c 9fbd b775 89bd
000002f0: 8845 933d 6bd9 923c 027b 26bd b9f4 c73d
00000300: b023 58bd 9a39 e4bb fd6d bc38 97a8 873d
00000310: 39ea 4abd a290 ecbc 70cc 863c 0253 02bb
00000320: ab8a 24bd 99b4 c3bc 9b96 773d 4178 3bbc
00000330: 9fa3 c03c 45bf 333d 531a 47bd fe70 45bb
00000340: 261d 34bd 22e0 86bd db4a 4dbd b6aa 083d
00000350: deb4 26bc e5c7 fabc 787f e2ba 36ae 2a2b
00000360: ddff 293c ea7f 913c c32c b33c 66f7 d33c
00000370: 3379 67bd 1b37 223d 7b26 6ebd 9228 27bd
00000380: 5ba7 243d 613b 643d 8c64 b8b2 21de 82bd
00000390: 6164 45ba c7f5 b5bc b4ef 84bd fe8d 98bd
000003a0: 1579 a0bc a0b4 86bc 68b3 41b9 79a0 5ab9
000003b0: 1470 223d 81f5 ff3d aed6 81bd 7169 8cbd
000003c0: 75aa 2bbd f610 0bbd 8bb4 c1bc 4e69 4c3d
000003d0: a1b9 6d3d 5126 7f3c baaa 4cb9 4d51 8431
000003e0: f2df d9ba 5713 fa3c a39e 673d 775d 0a3c
000003f0: 1504 8bbc 3247 aa3d 5ec9 55bc fee8 f8bc

network.6.bias f4 [16]
0.10758882 -0.0008450009 0.043839697 -0.007881651 0.108177856 -0.1475312 0.051090777 -0.10971942
0.23278335 0.23573609 -0.018945798 0.08163234 -0.035820473 0.06884549 -0.052484278 -0.053078357
00000000: 8757 dc3d 0d83 5dba 4191 333d 0a22 01bc
00000010: 5a8c dd3d 6b12 17be 9044 513d 93b4 e0bd
00000020: c25e 6e3e cd64 713e 3834 9bbc db2e a73d
00000030: 7db8 12bd ddfe 8c3d c1f9 56bd b168 59bd

network.8.weight f4 [1, 16]
-0.18289238 0.00021594763 -0.11154496 0.1226695 0.09352658 0.2940493 -0.08942881 -0.0146127185
-0.31343043 -0.30963856 0.009052358 -0.10124631 0.1113532 -0.030461485 0.14181168 0.2305293
00000000: 2448 3bbe 0070 6239 af71 e4bd 263a fb3d
00000010: dd8a bf3d a18d 963e 7426 b7bd 2f6a 6fbc
00000020: f479 a0be f288 9ebe 5750 143c 3a5a cfbd
00000030: 260d e43d 5d8a f9bc 1537 113e df0f 6c3e
