ai-service/trained_models/performance_ffn.pt (torch, 21293 bytes, 15 tensors)

network.0.weight f4 [64, 9]
000000 be 47 1e 3e 9e 6c 02 bd c6 f8 80 3c 7e 51 a2 3d
       0.15457055 -0.031841867 0.015743624 0.079257
000010 e5 8a 84 3e 77 83 89 3e d0 36 84 be 4c 75 85 3e
       0.25887218 0.26858112 -0.2582307 0.26066053
000020 0d ea 13 bc bd 53 1c be 08 8a 82 be 2b 12 ca 3d
       -0.00902797 -0.15266319 -0.25495934 0.098667465
000030 e2 f3 10 be b9 73 10 be 0c 42 0a 3e df 9a a3 3d
       -0.14155534 -0.14106645 0.13501757 0.07988524
000040 3e 3f 8a 3e fd 2a 0a be 0d fc 1d 3e 85 2f a6 3d
       0.27001375 -0.13492961 0.15428181 0.081145324
000050 40 04 5d 31 3d cd 7b 3e e6 18 1d 3e 43 25 8f 3e
       3.2162148e-09 0.24590011 0.15341529 0.27958116
000060 b2 87 12 3e 84 9f 06 3e 94 23 72 3e d3 ef cf bc
       0.14309576 0.13146788 0.23646384 -0.025382912
000070 09 60 6f bd 33 93 ba 3d 04 56 08 be 70 65 96 be
       -0.058441196 0.09110107 -0.13314062 -0.29374266
000080 f2 fc 02 be 6a c7 6c 3e 7b 66 46 be 2f 3c 17 be
       -0.12791803 0.23122945 -0.1937503 -0.14769052
000090 ea 8a f6 bd 95 dc 5a bd 79 19 92 b3 9a 9e e9 3d
       -0.120382145 -0.05343302 -6.803288e-08 0.11407204
0000a0 91 36 83 be a2 e3 87 3d 78 c9 69 be 1d 77 9c 3e
       -0.25627568 0.066352144 -0.2283076 0.30559626
0000b0 30 98 85 3e e7 cb 78 3e 54 5d 91 3e 9b 8a 0f 34
       0.26092672 0.24296533 0.28391516 1.3368337e-07
0000c0 a1 ff e7 bd 20 6c 88 3e 4d df 81 3e 0a a6 0b 3e
       -0.11328054 0.26644993 0.25365677 0.13637558
0000d0 7b 32 9a bd 6d 5a 9a 3b 48 80 93 3e a2 7f 00 3e
       -0.0752916 0.0047104866 0.28808808 0.12548688
0000e0 28 33 25 3a 8c 9a d6 3d db c9 5a be 5b 56 8b 3e
       0.00063018734 0.10478696 -0.21366064 0.27214321
0000f0 5f 05 27 be 53 19 ec 3d 14 cb 2b be 01 0d 99 be
       -0.16310643 0.11528268 -0.16776687 -0.29892734
000100 d3 9b 32 3d 53 77 ad bd 8d a9 68 3e ed 3d bb 3d
       0.043605637 -0.08470025 0.22720928 0.09142671
000110 89 e3 07 3e 79 65 d5 bd 5d 06 39 3c 99 a3 0d 3e
       0.13270392 -0.10419745 0.011293021 0.13831939
000120 09 d6 86 be 80 fd 86 be b6 ba a3 32 d2 88 4f 3e
       -0.2633517 -0.2636528 1.9060604e-08 0.20267037
000130 fe b6 48 3d f8 c2 5a 3e 51 ea 1e bc ef c1 c2 bd
       0.04900264 0.21363437 -0.00969942 -0.09509646
000140 63 0a 7e be 5e 73 40 3e 51 1a 25 be c3 a8 ad bb
       -0.2480865 0.18794009 -0.1612332 -0.005299659
000150 94 17 2c be 93 68 80 3e 1d 41 87 3d c8 1d 83 be
       -0.1680587 0.25079784 0.06604216 -0.2560866
000160 81 8b a8 be 86 f9 31 be 59 0e 53 3e f2 43 2e 3e
       -0.32918933 -0.17380342 0.20610942 0.17018107
000170 52 8e 15 38 6f 2f 9e 3e 3a ea af bd 2b 29 4b 3e
       3.5656914e-05 0.30895564 -0.08589597 0.19839923
000180 3d b8 84 3e 66 bf 4b 3e 43 50 af 3d 56 6d 81 be
       0.25921813 0.19897231 0.085602306 -0.2527873
000190 1c 16 77 be 3d 69 b4 3a 2f 58 08 bc 7e 1f 64 3e
       -0.24129528 0.0013764274 -0.008321806 0.22277638
0001a0 2f c8 47 be 6f 9e 7f 3d 11 ba c4 bd e2 0c 29 3e
       -0.19509958 0.062406953 -0.09605802 0.1650882
0001b0 62 aa fc 3d 70 26 be be 8e 02 c9 3d 68 cd 63 be
       0.123371854 -0.371387 0.098149404 -0.22246325
0001c0 da 25 08 3e a0 91 0e 3e a7 cd 33 be 68 3b 20 be
       0.13295689 0.13922739 -0.17558919 -0.15647662
0001d0 2e 16 86 3d 62 47 2c be 2e 4c 8b 3e 91 35 14 36
       0.06547199 -0.16824105 0.27206558 2.2084898e-06
0001e0 b9 2e 6b 3e a9 0c 86 3d f8 6e 5e be 61 43 69 bd
       0.22967042 0.065453835 -0.21722019 -0.056949023
0001f0 bc 98 c1 3d 88 ef 3d bd 32 48 8f be ec a3 ed bd
       0.0945296 -0.046371013 -0.27984768 -0.11603531
000200 90 35 a2 3b 5a 9b 59 3e 24 09 04 be 42 e5 a1 3d
       0.004950233 0.21250668 -0.12894112 0.079050556
000210 4d 2d 7a 3e 9b 1d ac 3e 30 56 1a 3e 82 b0 71 3e
       0.24431343 0.33616337 0.1507194 0.23602489
000220 b1 65 37 3e 5b 98 19 b3 d5 35 2a 3e a4 f2 93 3d
       0.17909886 -3.5761655e-08 0.16622098 0.072240144
000230 5e 2b 31 3d 83 70 2e 3e 02 96 28 3e 15 5f 9b bd
       0.04325425 0.17035107 0.16463473 -0.07586495
000240 f2 8c 9f 3e d0 97 18 3e 83 c1 9b bd 3f ef 5b be
       0.3116222 0.14901662 -0.07605269 -0.21477984
000250 bb 62 a2 be 32 de 04 be 39 80 fc 3d bb 67 b3 bd
       -0.3171595 -0.12975386 0.12329144 -0.087600194
000260 7a 1a 65 be e3 03 89 be a5 3e a2 bd 77 7c af b9
       -0.22373381 -0.26760778 -0.07922105 -0.00033471335
000270 2f e1 af 3d b6 b8 e2 bd 71 09 02 be 61 7a b4 be
       0.08587872 -0.11070387 -0.12698914 -0.35249618
000280 c6 e4 75 bd 66 d4 eb bd de 56 34 3e 77 39 7b be
       -0.06003263 -0.11515121 0.17611262 -0.2453364
000290 2d c0 1c 34 eb 80 88 be 45 14 91 be 2a d1 8f 3e
       1.4598545e-07 -0.26660857 -0.28335777 0.28089267
0002a0 0b ce 82 3d 7e ac 80 3e 9e f1 3c 3d 5e f5 54 bc
       0.06386956 0.251316 0.04612886 -0.012997953
0002b0 ba 4f ad be 8f a3 26 33 97 db 87 be b9 61 ff bd
       -0.3384989 3.8798643e-08 -0.2653472 -0.12469811
0002c0 2a 51 8f bd 81 5e 33 be b8 51 97 3e f3 a9 af bd
       -0.06997903 -0.17516519 0.29554534 -0.08577337
0002d0 11 c8 21 be 5d 39 53 be ca bc 3d b3 06 66 a7 bd
       -0.15798976 -0.20627351 -4.4176694e-08 -0.08173756
0002e0 36 61 a2 bd de 92 87 bd cf 4e 45 be e8 43 11 be
       -0.07928698 -0.066198096 -0.19268344 -0.1418606
0002f0 7e e9 44 bd a4 79 63 be ad 39 95 be de bb 78 b2
       -0.048074238 -0.22214371 -0.29145566 -1.4478216e-08
000300 17 6c 96 be 1f 9d 76 be f2 aa 96 be c7 9b 22 3e
       -0.2937934 -0.24083374 -0.29427296 0.15879737
000310 ef 7e 71 bd 66 bb 8f be f3 5a 80 be 33 d3 c0 3e
       -0.058958944 -0.2807266 -0.2506939 0.37661132
000320 ac 73 9f 3d 90 0b a4 3e 29 74 4d 3d df d3 16 be
       0.077857345 0.3204007 0.050159607 -0.1472926
000330 36 2d 7b be 35 5b 34 3e ee de 05 3e ba 4e b4 3e
       -0.24528965 0.17612918 0.13073322 0.35216314
000340 89 a7 84 be 3a 31 e8 3d 3c ba 69 3e 4b b9 59 be
       -0.2590907 0.11337514 0.22824949 -0.2126209
000350 ac 6a 94 bd 33 b3 79 3e 95 a9 62 3d a0 02 1a be
       -0.072469085 0.24384765 0.055337507 -0.15040064
000360 d5 e2 c6 bd cb 5d 66 be 6c b8 f1 bd b7 b9 57 be
       -0.097112335 -0.22496717 -0.11802754 -0.21066938
000370 f5 0b 82 be 0b f6 8b be b4 f1 20 3e 67 b1 87 3e
       -0.25399747 -0.27336153 0.15717202 0.26502535
000380 00 56 20 3e ce a9 88 3e f3 4e ca bd 0e ea 46 bd
       0.15657806 0.2669205 -0.098783396 -0.048563056
000390 13 51 61 3e d9 a2 21 3e 51 60 a6 3e 45 ea 72 3e
       0.22003584 0.15784778 0.3249536 0.23722179
0003a0 03 9d b5 bd 78 0f 40 3e 94 37 a0 3e df 11 a4 be
       -0.08867838 0.18755901 0.31292403 -0.32044885
0003b0 fa 3a 01 3d c8 67 ad bc 5b 0c a6 3e bc 41 39 be
       0.031550385 -0.02116765 0.324313 -0.18091482
0003c0 09 86 a2 bd d5 42 9a be 60 29 04 be 75 5d 21 be
       -0.079357214 -0.30129114 -0.12906408 -0.15758307
0003d0 72 1a ca bd 16 86 26 b3 fb 7f 23 3d 3f 76 90 be
       -0.09868325 -3.8771837e-08 0.039916974 -0.28215215
0003e0 3e 55 88 bd 81 96 e2 3d 32 cf 71 be 88 08 11 3d
       -0.06656884 0.110638626 -0.23614195 0.035408527
0003f0 51 f2 95 3e fe c3 be bd f1 02 b5 bd bb 01 37 3e
       0.29286435 -0.09314726 -0.08838452 0.17871754

network.0.bias f4 [64]
000000 db 80 8d 3a 67 c4 41 b4 33 2e a1 39 d8 d1 22 3d
       0.0010795848 -1.8045976e-07 0.00030742734 0.039750904
000010 f3 d7 e1 b9 bd 5c ea 3d e1 05 2f 37 39 10 ab 3c
       -0.0004307624 0.1144347 1.0432182e-05 0.020881759
000020 3f d4 8b 38 8e c1 09 3d b5 93 b4 bd be 17 85 b5
       6.6675704e-05 0.033631854 -0.088172354 -9.916182e-07
000030 c7 2a 0b 36 ee 50 e0 3d 43 02 2b bd ea 5a d0 b9
       2.0737514e-06 0.10952936 -0.041750204 -0.00039740588
000040 26 9e 8d b5 62 59 5f 3d 31 bd 5f bd 4c cc ea bd
       -1.0551346e-06 0.0545286 -0.054623786 -0.11464748
000050 85 e5 2f 38 d5 b7 8f 36 fa 67 54 35 41 16 1e bd
       4.1937008e-05 4.283133e-06 7.912746e-07 -0.03859544
000060 72 27 00 b9 8b b3 34 3c 9a bb e1 b5 e7 e3 45 bd
       -0.00012221726 0.0110291345 -1.6818406e-06 -0.048313048
000070 b9 b5 f5 bc 1b fe a4 bd 2e 9c 7a 3c 91 19 ca ba
       -0.029993879 -0.08056279 0.015296025 -0.0015418996
000080 11 ba a4 bd ac 00 90 bc 69 fc f2 b3 c3 b2 c3 3a
       -0.08043302 -0.017578445 -1.1314916e-07 0.0014930594
000090 a5 4d b7 3d e3 2b bd bc 1e 10 50 bd e1 b6 b2 b7
       0.089503564 -0.023092216 -0.05079662 -2.1304413e-05
0000a0 56 a2 07 bd 19 fc 1e bc 40 40 f7 3c 62 5a ef bc
       -0.0331138 -0.009703659 0.030182004 -0.029217903
0000b0 ad a3 e1 38 0b b9 a9 39 81 a6 41 bd 6d aa c7 b6
       0.00010759323 0.0003237206 -0.04727793 -5.9505023e-06
0000c0 6e 43 91 3d 1b 5e 5e b8 46 04 a2 37 72 35 83 3d
       0.07092939 -5.3016567e-05 1.9313895e-05 0.06406678
0000d0 4e 95 0a 37 65 36 c1 bb 25 61 7d 3a 22 99 26 b9
       8.260204e-06 -0.005896377 0.000966566 -0.0001588804
0000e0 1d 52 ab 39 e6 4a ae 3d 75 1a b8 3a b6 61 f0 3c
       0.0003267684 0.085103795 0.0014045971 0.029343467
0000f0 ef 44 cc b5 3a 1a d3 b7 54 4e 20 3d 6f b5 ae bc
       -1.5219247e-06 -2.5165373e-05 0.0391372 -0.021326749

network.1.weight f4 [64]
000000 44 95 7f 3f 12 0c 71 3f ae 1c 73 3f f4 06 7c 3f
       0.99837136 0.9415904 0.94965637 0.9844811
000010 0a 44 70 3f bc de 7f 3f 37 8f 76 3f c6 23 7b 3f
       0.9385382 0.9994924 0.9631228 0.9810146
000020 74 84 7b 3f db d2 73 3f 8a 98 71 3f d9 96 75 3f
       0.9824898 0.95243615 0.9437338 0.959333
000030 4d d4 7c 3f 2b 9c 7c 3f 2e 7f 79 3f db ec 79 3f
       0.98761445 0.98675793 0.97459686 0.9762704
000040 79 15 71 3f bf b9 6c 3f 7c 88 77 3f 20 91 75 3f
       0.9417339 0.92470926 0.96692634 0.9592457
000050 dc c9 72 3f 62 95 72 3f 5b ab 7b 3f f1 0c 80 3f
       0.9483926 0.9475919 0.9830834 1.0003949
000060 3d 68 78 3f 33 ca 75 3f 86 29 6d 3f 60 82 73 3f
       0.97034055 0.96011657 0.92641485 0.9512081
000070 ec 9f 78 3f 47 0f 7a 3f 5f 7d 76 3f 6f 5d 74 3f
       0.9711902 0.9767956 0.9628505 0.9545507
000080 55 c8 7a 3f 25 1f 74 3f f6 86 78 3f f2 0f 7c 3f
       0.9796193 0.9536002 0.97080934 0.9846183
000090 f5 36 72 3f 46 b9 70 3f 4f b8 7a 3f a0 c7 7a 3f
       0.9461511 0.94032705 0.9793748 0.97960854
0000a0 03 60 71 3f d2 25 75 3f 1a 41 7c 3f 92 a3 7f 3f
       0.9428713 0.95760834 0.9853684 0.99858963
0000b0 43 d3 7e 3f ab 3a 73 3f 9a e5 74 3f fe 97 7b 3f
       0.9954111 0.95011395 0.95662844 0.98278797
0000c0 f7 32 7d 3f 97 33 76 3f ba a0 80 3f ef 18 77 3f
       0.9890589 0.9617247 1.004905 0.9652242
0000d0 14 30 7c 3f 01 6c 7c 3f 5b 6d 6d 3f a0 62 77 3f
       0.9851086 0.986023 0.9274499 0.96634865
0000e0 91 19 75 3f 15 ae 7a 3f 73 ca 76 3f 0a 63 7e 3f
       0.95742136 0.9792188 0.96402663 0.9936987
0000f0 02 22 7c 3f 05 23 71 3f 8b 2a 78 3f 83 f6 7c 3f
       0.9848939 0.9419406 0.96939915 0.9881365

network.1.bias f4 [64]
000000 da c4 d2 3c 10 89 92 bc 0a 59 ba bc 82 2c 84 ba
       0.025728632 -0.017887622 -0.022747535 -0.0010084065
000010 59 bb ef bc ba 8c 97 3c 45 83 de ba 7d c6 48 3c
       -0.029264139 0.01849972 -0.0016976377 0.012254355
000020 ed 28 87 3c 8a da 9f bc 97 aa bd bc ce a5 82 ba
       0.016499007 -0.019513387 -0.023152633 -0.0009967627
000030 80 ba 24 3c 46 95 c7 3a 69 79 0e 3c 28 c8 18 3c
       0.010054231 0.0015226982 0.008695939 0.009325065
000040 ec 5a ae bc a4 ef 68 bc 2a ae 56 bc a7 20 82 bc
       -0.02128359 -0.014217291 -0.013103047 -0.01588471
000050 ee c0 17 bd a6 fd 75 bb b5 4a 8d 3c c4 78 0b 3d
       -0.037049226 -0.003753522 0.017247537 0.034050718
000060 db 69 bc bb 8b 1a 46 3c a6 52 17 bc 65 20 00 bc
       -0.0057499236 0.012091289 -0.0092360135 -0.007820223
000070 19 53 3e 3c ad 85 a0 3b f8 7b d1 3b 03 07 18 bc
       0.011616492 0.004898748 0.006392952 -0.0092790155
000080 29 02 64 bb 2b ad df 3b c2 4c 3e 3c 04 29 b5 3b
       -0.0034791327 0.006826063 0.01161498 0.005528571
000090 6e aa 0d bd cf 2c 1b bc 86 de dd ba e1 5f 38 3b
       -0.034586363 -0.009471132 -0.0016927279 0.002813332
0000a0 37 55 e7 bc 25 b5 29 3b 5e 5e da 3a ab 15 b4 3c
       -0.028238876 0.0025895324 0.0016660204 0.021982988
0000b0 67 c3 e4 3c 17 0e 8d bc 6f 63 72 bc 83 6e 99 3c
       0.027925206 -0.017218633 -0.014794215 0.018729454
0000c0 6c ab 73 3c 7b 9d 8f bc 9e 69 c1 3c ee 83 da 3b
       0.014872413 -0.017531147 0.023609933 0.0066685593
0000d0 07 98 0c 3d ff b0 cb 3c 2e ad 2b bd 23 82 72 bb
       0.034324672 0.024864672 -0.041913204 -0.0037003837
0000e0 5d c0 22 3c dc 03 ed 3c a9 bd 8a bb 4d 51 e3 3b
       0.009933558 0.028932504 -0.004234035 0.006937182
0000f0 fc 4f bf 3c 40 e7 c9 bc b8 c2 62 3c c4 5b ba 3c
       0.02335357 -0.024646401 0.01384037 0.022748835

network.1.running_mean f4 [64]
000000 7d 72 a6 3e 67 83 4e be 3b 16 5c 3f f6 d6 9f be
       0.32509223 -0.20167314 0.8597142 -0.3121869
000010 c5 33 55 3e 6a 2c 2d 3f 68 dd 89 3e 5e 0e 82 3d
       0.2082053 0.67645895 0.26926732 0.063503966
000020 97 14 f7 be ac 5a e5 be 92 0f 47 3f 55 47 92 be
       -0.48257896 -0.4479574 0.77758133 -0.28570047
000030 f2 99 94 be b2 75 09 3e 1d f3 91 3e f4 23 0d 3f
       -0.290237 0.13423803 0.28505793 0.55132985
000040 3a ef 85 bd 4a d5 21 bf 08 1f 24 3e 80 1e 06 bf
       -0.065397695 -0.6321608 0.16027462 -0.5239029
000050 9d de 1a bf f4 6e 65 bf 44 80 45 3e 9c 86 06 3e
       -0.6049593 -0.89622426 0.1928721 0.13137287
000060 66 9a a9 bd e4 39 39 3f 09 09 bf be a3 f0 ba be
       -0.08281402 0.7235396 -0.3731158 -0.36511716
000070 b8 20 31 be 65 6d 0b bf 02 4a 55 be ea 03 fc 3e
       -0.17297637 -0.544638 -0.20829013 0.49221736
000080 05 d8 ee be f0 bd 34 bd c1 8d 23 3e be 36 4d 3e
       -0.46649185 -0.04412645 0.15972044 0.20040414
000090 f8 82 f1 bd f0 ac a8 be d3 c7 e1 bd 4b 46 b2 be
       -0.117925584 -0.3294444 -0.110244416 -0.34819254
0000a0 76 fe e2 3e a1 89 a7 be 6a cf 03 bf bd 09 09 3f
       0.44334763 -0.3272219 -0.51488364 0.53530484
0000b0 83 b2 29 3f 44 0f a7 3e 4c b4 b6 be 57 33 64 3f
       0.6628801 0.32628834 -0.3568443 0.8914084
0000c0 bb fc 76 3e 0f 41 57 be 17 d2 b4 bd 92 e9 7a 3e
       0.24119847 -0.21020912 -0.08829134 0.24503163
0000d0 4b ef e5 3d 50 13 cf be cd c9 fe bc 91 72 cd 3e
       0.11227282 -0.40444422 -0.031102085 0.4012647
0000e0 cd 30 1d ba af 97 1f 3f f0 f4 95 be af 16 cd 3e
       -0.00059963466 0.62340826 -0.29288435 0.4005637
0000f0 c8 85 d3 3e ff d3 d3 be c9 9b 9b 3e f2 9a 82 3e
       0.41313004 -0.41372678 0.30392292 0.2550884

network.1.running_var f4 [64]
000000 ce 41 8f 3c 3e 8f ee 3b c0 28 4d 3c 11 47 62 3c
       0.017487433 0.0072802594 0.012521923 0.013810889
000010 e8 cb 04 3c e7 6b 3e 3c 2e a2 f8 3b 7f 1f 2e 3b
       0.008105256 0.011622406 0.0075876927 0.0026569066
000020 78 08 b0 3b 45 6d 2b 3c d8 79 53 3c a9 58 cd 3b
       0.0053721033 0.010463064 0.012907468 0.0062666726
000030 b3 04 a4 3b f9 8d aa 3b e6 20 72 3c 07 c3 1c 3c
       0.005005443 0.0052049127 0.014778351 0.0095679825
000040 1d 83 20 3c a1 fa e1 3b 9a 69 d4 3b 28 03 0b 3c
       0.009796885 0.0068963324 0.0064823152 0.008484639
000050 f1 b7 f1 3b 77 b1 9c 3c 16 2f 22 3c 03 78 50 3b
       0.007376664 0.01912759 0.0098989215 0.0031809814
000060 56 4d 25 3c 28 07 fc 3b 30 b1 db 3b 54 cb 60 3c
       0.010089239 0.007691283 0.006704472 0.013720352
000070 3f 1d de 3b af c8 00 3c bc 46 78 3c 65 f6 11 3c
       0.0067783887 0.007860347 0.015153583 0.008908843
000080 f6 94 3d 3c d6 16 b2 3b 11 45 8b 3c be b4 78 3b
       0.01157116 0.005434851 0.017000707 0.0037949528
000090 84 04 21 3c 0c 08 cb 3b 33 38 c1 3b e1 69 44 3c
       0.009827737 0.0061960276 0.005896592 0.011988134
0000a0 be 1b a7 3b 78 4b 53 3c 4b 5b 1e 3c aa 23 07 3c
       0.0050997427 0.012896411 0.009665321 0.008248249
0000b0 89 f1 9b 3c 89 5f 03 3c 7d 32 32 3b d3 a9 ac 3c
       0.019036071 0.008018383 0.0027190738 0.021077072
0000c0 2c 23 1e 3c 6b 54 a9 3b df c9 a4 3a 10 a8 26 3b
       0.00965194 0.005167534 0.0012572369 0.0025429763
0000d0 d7 4e 03 3c 16 8b 20 3c cc 43 1c 3c 00 db 8b 3b
       0.008014402 0.009798786 0.009537648 0.00426805
0000e0 02 c9 bf 3b 1a d7 2d 3c a4 af e7 3b 64 3a 0a 3c
       0.0058528194 0.010610366 0.0070704985 0.008436773
0000f0 d3 0c 80 3b 45 c8 d3 3b b4 94 13 3c 4b 9c de 3b
       0.0039077788 0.006463083 0.009007622 0.006793534

network.4.weight f4 [32, 64]
000000 c7 cf 57 3d 3e 8e c6 3d 64 b0 b8 3c f0 45 51 bd
       0.052688386 0.09695099 0.022545047 -0.05109209
000010 db 93 15 3c b4 69 d3 3d 3f 74 c3 bd d6 77 b8 bc
       0.00912949 0.10322896 -0.095436566 -0.02251808
000020 9d bf 9f bd aa f9 44 3d 1b c7 6e bd ea 32 0b bd
       -0.07800219 0.04808966 -0.05829535 -0.033984102
000030 dc 1b 55 3b 7a a3 66 bd 2b 2c 38 3d bd 30 9d 3d
       0.0032517826 -0.056308247 0.044963997 0.07675312
000040 47 b5 bb bd 4e 99 b0 bd cb 4e ad bc 0c 48 35 bd
       -0.09165435 -0.086229905 -0.021155735 -0.044258162
000050 17 f7 e1 bd dc aa f9 3c e8 74 76 3d 53 51 ac 3d
       -0.11033457 0.03047698 0.060170084 0.08413949
000060 f1 1d 44 3d ad 5a 92 bd a2 96 e7 bd 22 16 35 3d
       0.047880117 -0.07146201 -0.11308028 0.04421056
000070 97 cb 92 3d 7b b6 ae 3d 4e 39 03 3d be 0e 55 bd
       0.07167738 0.08530899 0.032037072 -0.052016012
000080 dc 4f c2 3d 34 70 cc 3a 99 db e5 bb 0d 39 ae 3d
       0.09487888 0.0015597404 -0.0070147035 0.08506975
000090 de c1 e3 3b 5a 1f 3f 3d 1a e2 3f 3d c0 0f a8 bd
       0.006950601 0.04666076 0.046846487 -0.08206129
0000a0 02 75 f0 3d b0 e1 10 bc e9 15 3c ba bd a8 9e 3d
       0.117410675 -0.008842871 -0.0007174896 0.07747028
0000b0 50 37 03 3e 15 c0 f4 3c d2 1e e4 3d 26 f8 eb 3d
       0.12814069 0.029876748 0.11138691 0.1152194
0000c0 ce c9 a7 3d 9f 9f 9f bd 2a df c7 3d c1 0a a5 3d
       0.08192788 -0.07794117 0.09759362 0.08058692
0000d0 2c 46 01 3e aa 72 96 bb e9 52 34 3d 68 c1 10 3c
       0.12624425 -0.0045913057 0.04402438 0.008835174
0000e0 a2 64 ef bc cd e8 08 3c 7e 78 7d bd 6e 31 c7 bd
       -0.02922279 0.008356285 -0.06188249 -0.09726225
0000f0 3e be 2d 3b 0a 33 9e bc 87 af a6 bd 7b e9 79 bd
       0.0026511098 -0.019311447 -0.08138948 -0.06101368
000100 7a 11 d5 bd 9c 46 74 3d c2 2a cd 3d 48 71 a5 bd
       -0.10403724 0.05963765 0.10017921 -0.08078247
000110 32 dc 89 bd 30 eb 1e bd 67 ad 46 3d 67 03 45 3d
       -0.06731452 -0.03879851 0.048505213 0.048098948
000120 8e 95 ce bc 11 4c 09 3d 2c b6 93 bc b9 8e 77 3d
       -0.025217798 0.03351981 -0.018031202 0.060438845
000130 bb 6e f9 bd ae 1f 02 3d b0 15 d9 bb a2 ca 3b bd
       -0.12179323 0.031768493 -0.0066249 -0.045847543
000140 9b 7a f9 bc 61 61 4b 3c 17 51 eb 3a 81 b3 28 bd
       -0.03045397 0.012413354 0.0017953244 -0.041186813
000150 51 d7 87 bd 12 5a a4 3d 6c 18 e4 bd 34 7b ef bd
       -0.06632865 0.08024992 -0.111374706 -0.11693421
000160 47 9d 28 bd c1 6d 96 bd a1 d4 e3 bd 15 2c d0 bc
       -0.041165616 -0.07345153 -0.1112454 -0.025411645
000170 39 08 00 be 4d c9 a2 bd 66 0d 69 3d 6c dd e2 bd
       -0.12503137 -0.07948551 0.056897543 -0.11077389
000180 24 d2 ec bd f4 af 2c bc ff 32 6b 3d f5 92 6e bd
       -0.11563519 -0.010539997 0.05742168 -0.058245618
000190 4e ac a0 bc fb ae 3e 3d b9 f8 7f bb 93 a2 85 bc
       -0.019613411 0.046553593 -0.0039058162 -0.016312873
0001a0 9b 84 b3 bd 16 c0 87 3d 4d 34 dc bd 16 c2 c7 3d
       -0.08765527 0.06628434 -0.10752163 0.09753816
0001b0 3f 7f a7 3c 8d 04 c5 bc 49 13 91 bd a2 64 8a bd
       0.020446418 -0.024050022 -0.070837565 -0.067574754
0001c0 e4 3c 06 3e ea d9 bb bd 80 63 7f 3c 73 1a 0c 3e
       0.13109165 -0.09172423 0.0155876875 0.13681965
0001d0 60 40 6f bd ab da b9 3d 19 c5 05 be f5 a5 b1 3d
       -0.058411002 0.09074911 -0.13063468 0.08674232
0001e0 fe 5f ae bc 44 0b 45 bd 2c 0a 4c bd 1e 41 84 bd
       -0.021286007 -0.048106447 -0.04981439 -0.064577326
0001f0 61 59 9a 3d 7f 27 83 3d ee f1 8e 3d cf 71 fc bd
       0.07536579 0.06404018 0.06979738 -0.12326395
000200 02 13 ba bd 0c 6d c4 3c 7e df 73 bd 57 d4 7a bd
       -0.09085657 0.023977779 -0.05953931 -0.06123766
000210 24 d5 68 3d 6b 6e e5 3d fc c2 14 3d 25 a2 03 be
       0.05684389 0.11202701 0.036318764 -0.12854822
000220 9a b7 37 bd 14 1c 30 bd a9 83 e4 bd 9a 3b b0 bd
       -0.04485283 -0.042995527 -0.11157925 -0.08605118
000230 ca cf 4b bd 54 56 5c 3c 04 fe ac bd 68 e3 97 3d
       -0.04975871 0.013448317 -0.08446887 0.07416421
000240 08 83 f3 bc c2 eb b4 bd f9 d5 2b bc e3 1d 6a bc
       -0.029725567 -0.0883403 -0.010488027 -0.014289352
000250 d0 89 dd bd 7c 40 f6 bd 23 be 21 3d 49 d6 07 3e
       -0.10817301 -0.12024018 0.03948797 0.13265337
000260 a9 ad 12 bd f0 38 f6 3d 51 45 69 3d 9b f8 51 bd
       -0.035810146 0.12022579 0.05695087 -0.05126248
000270 61 db da bd 4c b4 10 3c 76 48 af bd d9 1a 9b 3d
       -0.106863745 0.008832049 -0.08558743 0.0757348
000280 52 7c 91 3d a3 6b d0 3d d8 a9 6e bd 15 d7 e6 bd
       0.0710379 0.1017678 -0.058267444 -0.112714924
000290 d7 c7 86 3d 25 01 7a bd 7e d2 8d bd 7e 61 06 be
       0.06581085 -0.061036248 -0.06924914 -0.13123128
0002a0 46 a3 a3 bd 1b 45 ed 3d ca db 8d 3d fb 71 d9 3d
       -0.07990126 0.115854464 0.06926687 0.10617443
0002b0 71 ef 21 bd 29 23 ee bd 57 aa be 3d 34 75 03 ba
       -0.03953499 -0.116278 0.093098335 -0.0005014718
0002c0 cb 04 12 3d 1f e1 c0 bd 1f 11 7c bd 1b ae d6 3d
       0.035649102 -0.094179384 -0.061539765 0.10482427
0002d0 c0 fc 34 bd 5c 11 04 3e 08 be c8 bd b2 f9 1e 3d
       -0.044186354 0.12897247 -0.098018706 0.038812347
0002e0 0a 07 e7 bd a9 51 a9 3d 5b 0f b6 3d bf 9f 3f bb
       -0.112806395 0.082675286 0.088896476 -0.0029239503
0002f0 e3 7e b1 3d fb 8e 5c 3d fa 9d a9 bd d9 6a a1 3d
       0.0866678 0.053847294 -0.08282085 0.07881708
000300 15 f5 a5 3c e5 06 a8 bd a3 4c db 3d fd 9a 36 bc
       0.020258466 -0.0820444 0.10707977 -0.0111453505
000310 28 ab c4 3b 88 9f da 3d f6 44 60 bd 5e 52 91 bd
       0.0060018487 0.106749594 -0.054753266 -0.070957884
000320 a7 a1 c1 bd f5 38 3d bd a7 a6 10 bd 8d 36 80 bd
       -0.09454661 -0.046196897 -0.035315182 -0.06260405
000330 6e b3 22 be 88 a4 84 3d a8 df 72 bd ee b7 57 3d
       -0.1588876 0.06476694 -0.059295326 0.052665643
000340 75 59 9d 3d 1f 3f 4b 3d 69 e2 d3 bd 6d 59 d8 3d
       0.07683078 0.049620744 -0.10345919 0.105639316
000350 6d e8 1d 3d 55 93 06 be 2d 66 eb 3d e6 a3 48 3d
       0.038551737 -0.1314214 0.11494098 0.04898443
000360 33 db be 3d 0d 94 41 bb 99 d5 bf 3d 37 2a 34 3d
       0.09319153 -0.0029537708 0.093669124 0.04398557
000370 f0 00 ea bd af 46 70 bd af 41 89 3d 67 3a a5 3c
       -0.1142596 -0.05866116 0.06701981 0.02016945
000380 a1 b7 d6 3b 67 4c 9b bd d4 33 09 3d cd ba 26 be
       0.006552652 -0.07582932 0.033496693 -0.16282196
000390 b5 f1 cd bd a1 72 9f bd 48 5c fe bd 8d 5e e7 3d
       -0.100558676 -0.077855356 -0.12419945 0.11297331
0003a0 19 1c 81 3d 98 38 a1 3d 16 a9 f8 bd 7e df 9b bd
       0.06304187 0.078721225 -0.121416256 -0.07610987
0003b0 9e d3 a5 bd 89 9a 4d 3c b7 24 9a 3d a1 00 9b bc
       -0.080970034 0.012549051 0.07526534 -0.018921198
0003c0 78 5f 60 bd cf a0 25 3c bc bf 08 3e 75 3c 12 be
       -0.054778546 0.010109141 0.13354391 -0.14280875
0003d0 4c 83 c8 3d d9 e8 04 be c6 68 6b bd af 85 2e 3d
       0.09790668 -0.1297945 -0.057472967 0.04260796
0003e0 fd a5 9f 3d 9f 2a a6 3c 98 c4 59 3d c3 72 6a bd
       0.077953316 0.020283995 0.053166002 -0.05723835
0003f0 85 1e d4 bc 5e d7 e2 3c 48 b8 a6 bd b4 1d 59 bd
       -0.02589346 0.027690586 -0.081406176 -0.053006843

network.4.bias f4 [32]
000000 c4 46 a2 b4 d9 ba 16 36 59 7d 25 34 f5 85 45 38
       -3.022634e-07 2.2460501e-06 1.5412424e-07 4.7093217e-05
000010 6c 22 82 b8 09 0e 59 36 31 61 cd 32 3d 91 9a 3a
       -6.2052946e-05 3.234369e-06 2.3909339e-08 0.0011792552
000020 cc 91 ee b3 3c e1 49 34 92 4c a8 b5 ae 04 61 34
       -1.1109259e-07 1.8801524e-07 -1.253926e-06 2.095646e-07
000030 5e 01 83 38 f2 00 25 b5 a7 05 ae b4 9c c4 a2 35
       6.2468214e-05 -6.1468666e-07 -3.2414138e-07 1.2127161e-06
000040 fa 0f 38 36 0f 9e bc 38 a0 cc 77 34 ac 06 50 36
       2.7427436e-06 8.993979e-05 2.307811e-07 3.0998299e-06
000050 7f dc d8 b4 ea 13 79 b5 6b a1 cc 34 f7 cd 93 34
       -4.0393567e-07 -9.278871e-07 3.8115408e-07 2.7530743e-07
000060 77 bf ce b9 46 6a 6f 3a 4d b8 83 b9 de 66 16 b6
       -0.00039434034 0.00091329624 -0.00025123582 -2.2411618e-06
000070 7d 67 e7 35 e8 55 58 34 e6 72 ca 33 70 8d 7e 31
       1.724096e-06 2.014782e-07 9.427258e-08 3.7042263e-09

network.5.weight f4 [32]
000000 89 76 73 3f 51 9b 82 3f 90 2c 80 3f 21 b8 7a 3f
       0.95102745 1.0203649 1.0013599 0.9793721
000010 68 6f 81 3f a5 0f 7f 3f d0 19 78 3f 22 d1 80 3f
       1.0112123 0.99633247 0.96914387 1.0063822
000020 4d 11 71 3f f6 e1 6f 3f 19 83 7c 3f cd 47 80 3f
       0.94167024 0.93704164 0.9863754 1.0021912
000030 85 5b 7e 3f 65 99 7f 3f db de 7e 3f 41 85 7f 3f
       0.993584 0.99843436 0.995588 0.99812704
000040 0e 7d 80 3f 48 1b 81 3f b3 61 81 3f 75 8b 81 3f
       1.0038164 1.008645 1.010794 1.0120684
000050 74 71 79 3f c1 f2 7d 3f f6 1d 7f 3f 47 76 6f 3f
       0.9743874 0.9919854 0.9965509 0.9353985
000060 ed b5 77 3f 20 5c 74 3f 03 ca 6d 3f 66 5c 7b 3f
       0.9676197 0.9545307 0.9288637 0.98187864
000070 54 1a 81 3f 18 bf 80 3f a8 90 7f 3f e3 56 80 3f
       1.008616 1.0058317 0.998301 1.0026516

network.5.bias f4 [32]
000000 48 f5 c3 3b 4b c0 8e 3d d1 94 78 3d af df f3 3c
       0.0059801675 0.06970271 0.060688797 0.029769747
000010 ab 22 5d 3d 44 92 23 3d b8 72 12 3d f4 6b 72 3d
       0.05398814 0.03993441 0.035753936 0.059184983
000020 db 17 86 ba a4 ef 45 3c 7b 4d 12 3d be 75 62 3d
       -0.0010230498 0.012081061 0.035718422 0.05528807
000030 72 e1 3b 3d 83 e3 62 3d 96 90 27 3d 1c 3f 41 3d
       0.0458693 0.055392753 0.040909372 0.047179326
000040 48 56 53 3d 38 b0 36 3d 2b 9c 21 3d da 3a 73 3d
       0.051595956 0.04460165 0.039455574 0.059382297
000050 1e 12 12 3d cd b2 23 3d 51 ed 03 3d 5c f8 72 3c
       0.03566181 0.03996544 0.032208744 0.014829721
000060 83 70 ec bb 2b 72 b1 3b eb 81 4c bd 2e 65 ac 3c
       -0.007215561 0.005415221 -0.049928587 0.02104434
000070 8b 8f 06 3d 2b 19 05 3d ce f6 0b 3d f2 c4 26 3d
       0.032851737 0.032494705 0.03417092 0.040715165

network.5.running_mean f4 [32]
000000 47 08 9f 3e 7e 47 00 bf 5e 72 81 be 07 a2 73 be
       0.31061003 -0.5010909 -0.25282568 -0.23792277
000010 44 b9 31 bf 09 df e9 bd 1f a8 50 be 1d 1e 73 3e
       -0.6942332 -0.11419494 -0.20376633 0.23741956
000020 e7 10 34 be 83 66 d4 bd a1 b8 43 be b2 90 5e bf
       -0.17584573 -0.10371115 -0.19113399 -0.8693954
000030 f8 db a6 bd 8b d5 91 3e 72 c7 e2 be 46 5e fc bb
       -0.081474245 0.28483233 -0.4429279 -0.007701668
000040 2a b9 63 be ee a7 3a bf e0 ae 28 bc 09 53 06 bf
       -0.22238603 -0.7291249 -0.0102956 -0.5247045
000050 fe 3e 7e be 04 04 d7 bd 22 5b c4 bd 07 3d ed bd
       -0.24828717 -0.10498813 -0.09587695 -0.11583906
000060 14 23 f4 3d 94 36 40 bb fc ac 87 3e 7f 79 18 be
       0.11920753 -0.0029329406 0.26499164 -0.14890097
000070 30 7e 2b be b2 49 14 bd 85 6c a9 3e 5c b5 f3 bd
       -0.16747355 -0.036203094 0.33090606 -0.11899826

network.5.running_var f4 [32]
000000 93 1d 31 3e 77 cd 12 3e b6 8d 94 3e 7a 0b b7 3e
       0.17296438 0.14336191 0.29014367 0.35750943
000010 c0 32 7c 3e 34 a4 32 3e 4e 2d 4a 3e 46 2c eb 3e
       0.24628735 0.17445451 0.19743845 0.45932215
000020 29 55 55 3e fe ad 85 3e 46 44 4b 3e cb 04 54 3e
       0.20833267 0.26109308 0.19850263 0.20704953
000030 21 32 b7 3e ef 45 83 3e 5f fa 24 3e 83 a8 3d 3e
       0.35780433 0.25639293 0.16111134 0.18521313
000040 74 7c 52 3e 85 96 31 3e 3a d4 fd 3e e9 1d 4e 3e
       0.20555288 0.17342575 0.4957598 0.20128597
000050 77 1e c2 3e 5c 11 8a 3e c3 ab 35 3e 8c 26 54 3e
       0.37913868 0.2696637 0.17741303 0.2071783
000060 17 84 88 3e d5 a7 0c 3e a0 1c 56 3e 98 d5 bf 3e
       0.26663277 0.13735898 0.20909357 0.37467647
000070 ba 05 29 3e db 2d e2 3e 28 66 05 3f 0e 16 d8 3e
       0.16506091 0.4417561 0.52109003 0.42204326

network.8.weight f4 [16, 32]
000000 d4 e8 52 3d fc c1 34 3d c5 07 9b 3d e9 4b e2 3d
       0.051491573 0.04413031 0.07569841 0.11049635
000010 5a 66 9e 3d a0 a9 9c bd d7 fc 1e 3d f5 2b 40 3e
       0.07734366 -0.07649541 0.038815346 0.18766768
000020 3f 7e c7 3d 56 a7 7d bd d2 15 f2 bd ce ce c6 3d
       0.097408764 -0.061927162 -0.11820568 0.097074136
000030 1b 1a 1c 3e 8e 19 0f bc f0 7d 73 bd b7 db 14 3e
       0.15244333 -0.00873412 -0.059446275 0.1453694
000040 93 47 c2 bc c3 37 14 3e ac 10 0d be a7 2b 3a 3d
       -0.02371577 0.14474396 -0.13775891 0.045451786
000050 05 e0 e5 3c a3 95 90 3c 5f b6 2f 3e 8e a9 1c 3e
       0.028060922 0.017649477 0.17159413 0.15299055
000060 bd 29 aa bd 39 e7 41 3d ad 0b bd bb d4 ca 42 3e
       -0.08308742 0.04733965 -0.005769214 0.19022685
000070 6f 5b fc bc a7 8f 37 bd 39 8a 05 be a4 18 0b be
       -0.030805318 -0.044814732 -0.13041009 -0.13583618
000080 e6 19 42 bd 1c 93 76 3d 0a ed ab bd a4 53 b5 3c
       -0.04738798 0.06019889 -0.08394821 0.02213461
000090 94 db 1e be a5 d7 19 be 2c a0 c0 3d 66 59 2f bd
       -0.1551345 -0.15023668 0.0940555 -0.042809866
0000a0 24 c9 96 3c 14 c5 76 bd 16 d3 e0 3d 92 4a 08 3c
       0.018406458 -0.060246542 0.109777614 0.00831856
0000b0 22 45 a4 3c 7c 2f f5 3c fb 4e bb 3c ee 52 fa 3d
       0.020052496 0.029929869 0.02286481 0.12222849
0000c0 ca 39 70 bd 59 ae aa bd aa c6 98 bd 3e 39 40 be
       -0.058648862 -0.083340354 -0.07459767 -0.18771836
0000d0 25 6a 2a be b9 03 ba bd b1 ae ff 3d f8 7a 92 bd
       -0.16642053 -0.09082741 0.124844916 -0.07152361
0000e0 74 e1 3a be 1b ec 9d 3d b2 75 9c 3d 68 53 59 3d
       -0.18250066 0.07711049 0.07639636 0.053058058
0000f0 ea ba 00 bd 97 d7 e9 bd 18 ed 3c bd a9 7a 8f 3d
       -0.031428255 -0.114180736 -0.046124548 0.070058174
000100 4d 9b 0a bd 26 aa cf bd 1f b5 0f bd 59 46 61 3c
       -0.033839513 -0.10139875 -0.03508484 0.013749682
000110 86 14 2d 3d c4 d4 6c bc 7c 35 d5 3d 05 54 0b be
       0.0422559 -0.014455024 0.10410592 -0.1360627
000120 41 c8 94 bc 17 a8 aa bc 8c d8 07 be e2 75 67 3c
       -0.018161895 -0.020832105 -0.132662 0.014127227
000130 19 64 98 bd 88 8e 96 bd f3 1e 4e bd 01 00 80 3d
       -0.07440967 -0.073514044 -0.050322484 0.06250001
000140 f9 f9 16 be 68 5b ce 3d e9 9b 09 be b6 40 0c 3d
       -0.14743795 0.10076028 -0.13438381 0.0342414
000150 e0 9e 45 bd 51 69 af bd 21 31 39 3e 32 20 e1 bd
       -0.048247218 -0.085650094 0.18085147 -0.10992469
000160 fe 1f 2e 3e 50 87 df bd d2 95 25 3d 6d 23 12 3e
       0.17004392 -0.10914481 0.040426083 0.14271326
000170 ca 5b 0c be 76 18 bf 3d ce 6c dc 3d 50 a7 1c 3e
       -0.1370689 0.093308374 0.1076294 0.152982
000180 9e 8f 08 be 74 cc 21 be 04 2b a7 3d e7 c5 2d 3e
       -0.13336036 -0.15800649 0.081625015 0.16970025
000190 28 43 cb 3b 67 9c 03 3e db af 83 bd 5f 85 b8 bd
       0.006203074 0.12852632 -0.06430026 -0.090098135
0001a0 f2 09 b3 3c 21 54 d7 bd 87 19 cf 3c fb 50 32 3d
       0.021855328 -0.10514093 0.025280727 0.04353426
0001b0 a8 5c 4d 3d 14 8c 93 3d ec 09 05 be 8b e1 f8 3d
       0.050137192 0.07204452 -0.12992066 0.12152394
0001c0 ff d7 27 be a8 99 48 3d ec 75 1b 3e 74 b9 9b 3d
       -0.1639099 0.048974663 0.15181702 0.07603732
0001d0 3c 75 83 3d 9e d9 09 be 5e af 3c bd 71 44 73 bc
       0.06418845 -0.1346192 -0.04606568 -0.014847861
0001e0 81 0b 12 be d7 52 10 bd 29 c9 eb 3d ae e7 b9 b8
       -0.14262201 -0.035235252 0.11512978 -8.864641e-05
0001f0 b9 04 7d 3d e5 85 08 3e fd 41 85 3d 0d fc 21 3e
       0.061772082 0.13332327 0.06506727 0.15818806
000200 c3 de 19 3d c3 18 a2 3d 87 9a 17 3e 3b f8 13 bd
       0.037565958 0.07914879 0.14805041 -0.036125403
000210 bf 07 46 3e 22 2b 0d 3d 3d a9 a3 3d cf 62 0c 3e
       0.19338892 0.034464963 0.07991264 0.13709567
000220 16 7b 94 bd b0 7c b2 3d 93 ef 73 3d 46 64 ef 3c
       -0.07250039 0.087151885 0.059554648 0.029222619
000230 8e e3 29 be 48 e1 2f 3e a7 c7 a0 bd 93 ed a9 bd
       -0.16590711 0.17175782 -0.07850581 -0.08297267
000240 55 a1 1b 3e 2d 1e ab bd 7b a3 00 be 15 da 02 be
       0.15198262 -0.08355365 -0.12562363 -0.12778504
000250 ae a4 5e bb 3b 23 7d 3c 83 f2 c5 bd 2f a2 07 be
       -0.0033972668 0.015450294 -0.09665396 -0.13245462
000260 df fd 53 3e d5 e4 32 3c 22 ce 6f bd 03 95 80 bd
       0.20702313 0.010918816 -0.058546193 -0.06278422
000270 a9 ab c5 bd c2 15 18 be c0 f4 03 3c 13 70 dc 39
       -0.09651882 -0.1485205 0.008053958 0.00042045172
000280 72 19 a8 bd 7f 91 2f bc 43 2a 4a bd 74 f8 2b 3e
       -0.08207978 -0.010715841 -0.04935671 0.16793996
000290 73 8e dc bd d8 d0 18 be 36 05 78 bc a0 4e 8e 3d
       -0.107693575 -0.14923418 -0.015137961 0.0694859
0002a0 46 0e b1 bd d3 5f 34 3e 34 70 2e 3e ed 09 6d 3d
       -0.086453006 0.17614679 0.1703499 0.057870794
0002b0 5b 62 b8 bc 9c 68 72 3d 84 0a cc 3c b2 cb 56 3d
       -0.022507837 0.059181795 0.024907358 0.052440353
0002c0 ab a2 41 bc 97 5d 15 bd 73 0c 21 3e e0 12 98 3c
       -0.011818568 -0.036466207 0.15727405 0.018563688
0002d0 3d d1 5d 3d 7b 80 8e 3d 13 87 eb 3d 1e b7 dd 3d
       0.054154623 0.069580995 0.11500373 0.108259425
0002e0 c9 a3 20 3e aa b9 49 bd c8 83 6a bd 7c 7e e8 bd
       0.15687479 -0.04924933 -0.057254583 -0.1135225
0002f0 1c 22 09 3e e8 0d 53 3e a0 a2 8c 3d e4 41 41 3e
       0.13391918 0.20610774 0.06866956 0.18872792
000300 77 35 fc bc 4c 48 46 3e 9c 28 b8 3c 3a 46 70 bd
       -0.030787213 0.19363517 0.022480302 -0.058660723
000310 df 0a 3f bd 97 df cf 3d 97 55 48 3e 5e 4f 4a 3e
       -0.046641227 0.10150068 0.195639 0.19756839
000320 f0 66 ef 3d b1 a9 94 3c 5d b6 be bd 5a 84 aa 3d
       0.11689556 0.018147321 -0.09312127 0.08326025
000330 07 45 c5 3d 9b 0d bc bc f6 75 ab bd 0a ac 1c 3e
       0.096323065 -0.022955706 -0.08372109 0.15300003
000340 8f 8b 03 3e 2a f1 c5 bd 5d e1 48 3d ea 5e 50 3d
       0.12846206 -0.09665139 0.04904305 0.050871767
000350 ea c0 25 3d 3d ee b9 bd d1 3c 5b 3e d0 27 f2 3d
       0.04046718 -0.090786435 0.21409918 0.11824
000360 12 d0 23 bd 40 dc f9 ba 6a d7 c3 bd 26 ac 2b 3e
       -0.039993353 -0.0019062832 -0.09562571 0.16764888
000370 a5 8c b1 bd b4 a9 36 3d 2f ff 9d 3d d5 e2 d8 3d
       -0.08669404 0.044595435 0.07714688 0.1059014
000380 17 15 a0 bd 23 ef c8 3d 90 97 40 bc df d5 44 bc
       -0.078165226 0.09811237 -0.011754885 -0.0120138815
000390 19 0f 39 bd 31 07 13 3e 61 a5 f5 3d b2 e9 2c bd
       -0.045180414 0.14358212 0.11994434 -0.042215057
0003a0 8c be 35 3c 54 f0 c6 bd c8 81 cd bc ab ad 6b 3d
       0.011092793 -0.09713808 -0.025086299 0.05753867
0003b0 41 b5 8d bc ac 8e f5 bd 5e 66 00 bd 49 85 2b 3c
       -0.017298343 -0.11990103 -0.031347625 0.010468789
0003c0 82 52 11 be 41 e7 fe bc 00 38 96 bc e8 27 df bb
       -0.1419163 -0.03111613 -0.01833725 -0.006810177
0003d0 94 04 d0 3d 3b 81 42 3e 65 d7 cb bc c4 33 51 3d
       0.10157123 0.1899461 -0.024882982 0.05107476
0003e0 6c 34 82 3c 0e 19 e6 3d 2f f1 eb bd 2b 26 4a 3e
       0.015894137 0.112352476 -0.115206115 0.19741122
0003f0 2c 69 a2 bd df 59 39 3c bc 9e 29 3e 08 4b c6 bd
       -0.07930216 0.011312931 0.16564459 -0.0968228

network.8.bias f4 [16]
000000 f3 36 03 3e 1f d2 24 bd fd 52 8d bd ce a5 cb bd
       0.1281393 -0.04023945 -0.069005944 -0.09943734
000010 c2 d5 0a 3e 8d ba 5f 3d 70 86 e6 bc 96 2b 55 bb
       0.13558105 0.054621268 -0.028140277 -0.00325272
000020 fa db da bc 44 49 ec 3d 21 f2 d7 3d 32 87 6e 3e
       -0.026716221 0.11537412 0.10544229 0.2329376
000030 59 88 97 3d 63 bc 04 be ce 89 81 3d c1 b1 00 be
       0.07399053 -0.12962489 0.06325112 -0.12567808

network.10.weight f4 [1, 16]
000000 0a d3 5d 3e ae 2b d1 bd 83 af 6c 3e 05 04 68 3e
       0.21662536 -0.10213409 0.23113827 0.22657783
000010 8a d8 ee 3d 21 a5 61 3e c5 7f f9 3d 54 77 8b 3d
       0.11662395 0.22035648 0.12182573 0.068098694
000020 a4 a0 12 3e b9 f2 7f 3e 91 46 4a 3e 8c bb 2d 3e
       0.14319092 0.24994935 0.19753481 0.16966075
000030 04 a0 2e 3e 10 91 48 3e 74 47 64 3e 79 6f 7d bd
       0.17053229 0.19586587 0.22292882 -0.061873887
